nn.pt (torch_old, 18771 bytes, 5 tensors)

f1.weight f4 [64, 2]
4.033603 1.1769931 1.5466886 1.5496812 -6.1936064 -1.3855433 3.3332717 2.3534029
3.3616707 2.5105793 3.245581 2.1375225 -2.7406843 -0.08017495 4.9996448 1.0001472
-2.3910227 -0.68750507 -2.950913 -0.93362904 -5.8161235 -1.6419191 -2.442649 -0.74452144
2.3841665 1.2238144 3.2164514 0.36438578 -2.8035686 -1.0797074 2.2002208 1.6813716
2.4766214 0.88735145 2.7782092 0.29657507 4.889022 0.7162222 2.848954 1.3842826
3.3157947 2.290186 -2.1313705 -0.99097085 1.6720254 1.5481375 3.8043864 0.8742387
4.451331 0.49611017 -3.3865697 -0.23675358 -2.995625 -0.1967924 2.8725336 1.2145772
-2.9216983 -0.6112092 2.7501583 0.9163039 -3.6747303 -0.24183959 -3.6310406 -0.7441234
-3.0427387 0.21998091 2.9642372 0.9544223 0.6374521 0.75261134 -5.510055 -1.6508478
-2.3517425 -0.8938946 -3.0585911 -0.3400519 3.5834775 1.5913728 3.8128536 1.2373847
-2.704864 -0.24678373 3.780706 0.7736885 4.5333514 0.9048062 4.0405045 0.85795027
5.205196 0.7308819 1.5540576 1.6666352 3.5146356 0.19676855 2.9309907 1.9032186
3.7795923 0.38562763 2.4215875 1.5542951 3.5973823 0.7701731 -2.2059443 -0.74970746
-3.27989 -0.7920337 -2.9221773 -0.9353047 5.312656 -0.12205318 2.998034 0.34638205
-2.9944727 -0.5778751 -2.5335207 -0.6639026 -3.5083501 -0.58234745 -3.0024817 -1.6967113
-3.0885344 -0.16725315 2.4777336 0.7667023 3.285538 2.2102814 -2.8476603 -0.6087103
00000000: 4713 8140 b6a7 963f e4f9 c53f f45b c63f
00000010: 0632 c6c0 7c59 b1bf 5354 5540 279e 1640
00000020: 9d25 5740 55ad 2040 99b7 4f40 2bcd 0840
00000030: 5f67 2fc0 c432 a4bd 17fd 9f40 d304 803f
00000040: 8406 19c0 5500 30bf c2db 3cc0 5002 6fbf
00000050: af1d bac0 682a d2bf 5c54 1cc0 f598 3ebf
00000060: 2f96 1840 f3a5 9c3f 57da 4d40 c690 ba3e
00000070: ab6d 33c0 da33 8abf 6bd0 0c40 2f37 d73f
00000080: f780 1e40 7729 633f 2ece 3140 b0d8 973e
00000090: de72 9c40 575a 373f 4355 3640 2c30 b13f
000000a0: fb35 5440 6892 1240 6068 08c0 44b0 7dbf
000000b0: ee04 d63f 5f29 c63f 117b 7340 1cce 5f3f
000000c0: 4e71 8e40 2702 fe3e 8fbd 58c0 886f 72be
000000d0: 52b8 3fc0 f283 49be 97d7 3740 4477 9b3f
000000e0: 1bfd 3ac0 3578 1cbf 9802 3040 e492 6a3f
000000f0: c82e 6bc0 cca4 77be f862 68c0 df7e 3ebf
00000100: 3bbc 42c0 ad42 613e 10b6 3d40 0555 743f
00000110: 1030 233f 23ab 403f 5f52 b0c0 fb4e d3bf
00000120: f382 16c0 47d6 64bf f5bf 43c0 481b aebe
00000130: b257 6540 1bb2 cb3f cb05 7440 9f62 9e3f
00000140: 7e1c 2dc0 e0b4 7cbe 16f7 7140 7310 463f
00000150: 3711 9140 61a1 673f d04b 8140 a1a2 5b3f
00000160: f790 a640 141b 3b3f 5ceb c63f 4d54 d53f
00000170: caef 6040 b27d 493e 5a95 3b40 ab9c f33f
00000180: d7e4 7140 fc70 c53e 4afb 1a40 24f3 c63f
00000190: 833b 6640 102a 453f 312e 0dc0 d4ec 3fbf
000001a0: b8e9 51c0 b8c2 4abf f404 3bc0 2170 6fbf
000001b0: 4701 aa40 05f7 f9bd cadf 3f40 fd58 b13e
000001c0: 71a5 3fc0 9fef 13bf 3425 22c0 85f5 29bf
000001d0: cf88 60c0 b914 15bf a928 40c0 d62d d9bf
000001e0: 8caa 45c0 6944 2bbe 3093 1e40 9a46 443f
000001f0: 4146 5240 4075 0d40 1140 36c0 70d4 1bbf

f1.bias f4 [64]
-0.5897598 -0.7668792 0.66245663 -0.5467599 -0.5300979 -0.56689435 0.7387995 -0.64071923
0.8505185 0.51279473 0.6385272 0.63788366 -1.1092039 -0.55045384 1.2270812 -0.6986527
-1.0210994 -0.9713143 -0.5809938 -1.2914474 -0.5839408 0.911926 -0.9440547 -0.5966371
-0.5255384 0.46373698 0.9504131 -1.2705437 0.46751785 -0.5358367 0.48055428 0.4635825
0.6134415 -0.7768962 -0.2676297 0.6454693 0.970713 0.46998212 -0.63284886 -0.51077914
0.7289003 -0.6151387 -0.6183052 -0.6164377 -0.680699 -1.020033 -0.53635937 -0.64159477
-0.5446346 -1.1751075 -0.6398369 0.8980787 0.5553241 1.2432505 -0.60002655 -0.5110734
0.54348546 0.71658325 0.52266437 0.4789031 0.96312976 -0.93568826 -0.5648813 1.0813451
00000000: 80fa 16bf 3252 44bf c296 293f 75f8 0bbf
00000010: 7fb4 07bf fd1f 11bf f721 3d3f 2d06 24bf
00000020: 95bb 593f 8446 033f 8576 233f 584c 233f
00000030: 65fa 8dbf 8bea 0cbf ff10 9d3f e7da 32bf
00000040: 63b3 82bf 0ea8 78bf 02bc 14bf 264e a5bf
00000050: 257d 15bf fb73 693f 92ad 71bf 36bd 18bf
00000060: af89 06bf ef6e ed3e 464e 733f 2da1 a2bf
00000070: 805e ef3e 982c 09bf 360b f63e af5a ed3e
00000080: 810a 1d3f abe2 46bf c306 89be 7a3d 253f
00000090: a680 783f 7fa1 f03e 6202 22bf 6cc2 02bf
000000a0: 3699 3a3f bb79 1dbf 4049 1ebf dcce 1dbf
000000b0: 4a42 2ebf 7190 82bf d94e 09bf 8e3f 24bf
000000c0: 2c6d 0bbf ec69 96bf 5acc 23bf 7ce8 653f
000000d0: b829 0e3f d522 9f3f 579b 19bf b5d5 02bf
000000e0: dd21 0b3f 0072 373f 55cd 053f ca32 f53e
000000f0: ac8f 763f 4489 6fbf 109c 10bf 8469 8a3f

f2.weight f4 [64, 64]
0.2270354 -0.67041594 -0.36264798 -0.291012 -0.43858844 -0.4054352 0.45305312 0.125827
0.061782766 0.53520817 -0.21351904 0.84111845 0.047391523 -0.6037175 -0.050116446 -0.58564305
-0.49621013 -0.55488867 0.5216088 -0.07458397 -0.5119847 0.21378891 -0.6019295 -0.20635593
-0.304774 0.53471434 0.06435106 0.21184859 0.58778226 -0.38916823 0.6194774 0.32335234
0.2871201 0.0482784 0.12625876 -0.25359425 0.4016429 0.117705055 0.016423382 -0.33756122
0.5340363 -0.2761883 -0.11858115 -0.11595097 -0.15954587 -0.030723106 -0.5269802 -0.035328813
-0.26687512 0.30903408 -0.11432195 0.23415934 0.09523987 0.49298865 -0.13320947 -0.4594393
0.012002288 0.50890476 0.4703807 0.35020727 0.54361004 -0.0042302 -0.15723284 0.5948251
0.49960417 -0.16422221 -0.37982708 -0.004658994 0.0020332818 -0.12515828 0.08174487 0.5901749
0.070730574 -0.82098967 -0.28966305 -0.22428882 -0.01510215 0.020005923 0.411647 -0.1553336
-0.23951447 -0.13266617 0.16376886 -0.0055764844 0.033252355 0.22525497 -0.21508901 0.74072015
-0.033718333 -0.16275807 0.19258091 0.00852502 -0.1834405 -0.030476559 -0.29038277 -0.29554564
0.050261915 -0.31320286 -0.06433294 -0.34383088 0.04467856 -0.7077033 0.6134726 -0.07880304
0.040473472 0.4820517 0.5754456 0.62735397 0.65896857 -0.31917647 -0.13044831 -0.19391836
0.6152721 0.13297167 0.531804 0.20359376 -0.64176965 -0.056789286 0.7950209 -0.09276141
-0.6438993 0.0508683 -0.8555204 -0.33050618 -0.22759663 -0.02894695 -0.030223515 0.06981294
-0.7856138 -0.7592743 2.6332295 -1.8158739 -1.9883722 -1.3490609 0.26543254 -1.1808873
0.41747332 0.33980772 2.2422268 0.66089576 0.25209117 -1.1371442 0.38153717 -1.015656
-0.28968477 -0.23893276 -1.1200665 0.22003081 -1.7874056 0.6392854 -0.72255045 -0.5096464
-1.4777455 0.8736674 0.40658253 0.2247903 0.9041946 -1.0926665 1.2915597 1.5713111
0.37620538 -1.1135879 1.0781661 2.2417161 0.46168682 0.3585511 -0.7773827 -1.6954451
0.5760042 -0.7435283 -0.7774133 -0.8768186 -0.9788876 -0.40177324 -1.1665998 -0.9232405
-0.3810734 0.13663298 -0.25506333 0.5735934 0.50487196 -0.108934954 -0.58577484 -1.0884795
0.5537088 0.79724115 0.32531458 1.4307618 -0.06426872 0.6600988 -1.3689699 0.08661823
0.059260085 0.3897941 -0.16828327 0.40435892 0.3405234 0.24223654 -0.3332165 0.22666624
-0.21769889 -0.1463371 -0.0784919 -0.30210713 -0.06430982 0.35196963 -0.072420046 0.2835281
0.11948658 0.09411887 0.17430572 0.04312517 0.4339731 -0.15355897 0.23553853 0.022873953
0.4197698 -0.5454002 -0.27883378 -0.20072517 -0.44355667 0.39315623 -0.40272915 -0.40336177
-0.33641195 0.15200362 -0.049922355 -0.23988135 -0.26117602 -0.18713395 -0.048360307 0.44053695
-0.3247367 -0.0039629266 0.17289546 -0.026348453 0.08379734 -0.03211643 0.4669217 0.2970783
-0.028136007 -0.16617782 -0.07101936 -0.15456803 -0.01729537 0.1207473 0.1853853 0.49295875
-0.006059843 -0.4295903 -0.09830838 -0.24265641 0.068615764 0.0534315 0.32142848 0.023212356
00000000: f87b 683e 61a0 2bbf ffac b9be 86ff 94be
00000010: aa8e e0be 3495 cfbe 94f6 e73e cbd8 003e
00000020: ed0f 7d3d 6703 093f bca4 5abe 8a53 573f
00000030: 9d1d 423d 3b8d 1abf e746 4dbd b4ec 15bf
00000040: 410f febe 2f0d 0ebf 2888 053f 7bbf 98bd
00000050: 6e11 03bf 7beb 5a3e 0d18 1abf f84e 53be
00000060: 560b 9cbe 0ae3 083f 7dca 833d d6ee 583e
00000070: e678 163f 0f41 c7be 1296 1e3f 708e a53e
00000080: 6801 933e 92bf 453d fa49 013e 1bd7 81be
00000090: 23a4 cd3e 590f f13d 548a 863c d3d4 acbe
000000a0: 9ab6 083f 8e68 8dbe adda f2bd b477 edbd
000000b0: fe5f 23be 06af fbbc 2de8 06bf f2b4 10bd
000000c0: dba3 88be b739 9e3e a021 eabd 77c7 6f3e
000000d0: 1f0d c33d 0269 fc3e 1068 08be a13b ebbe
000000e0: 3fa5 443c 9547 023f bdd5 f03e 5e4e b33e
000000f0: 072a 0b3f 7d9d 8abb a501 21be 7546 183f
00000100: 1ecc ff3e de29 28be b278 c2be 79aa 98bb
00000110: cf40 053b 7e29 00be db69 a73d b415 173f
00000120: 31db 903d 612c 52bf b74e 94be f8ab 65be
00000130: 026f 77bc 76e3 a33c 65c3 d23e c50f 1fbe
00000140: 4843 75be a4d9 07be 06b3 273e f1ba b6bb
00000150: 9f33 083d 3da9 663e 4b40 5cbe d69f 3d3f
00000160: 3c1c 0abd 0daa 26be ee33 453e 87ac 0b3c
00000170: d4d7 3bbe faa9 f9bc 0dad 94be c251 97be
00000180: 70df 4d3d 205c a0be fdc0 83bd 9a0a b0be
00000190: de00 373d 0b2c 35bf 8a0c 1d3f 7d63 a1bd
000001a0: 83c7 253d 7bcf f63e 6750 133f 459a 203f
000001b0: 2ab2 283f 196b a3be 3e94 05be 8992 46be
000001c0: 7982 1d3f ba29 083e 4f24 083f e27a 503e
000001d0: 044b 24bf e29b 68bd 7d86 4b3f b2f9 bdbd
000001e0: 96d6 24bf 475b 503d 6303 5bbf 1b38 a9be
000001f0: 170f 69be 2722 edbc 4e97 f7bc 16fa 8e3d
00000200: fc1d 49bf cd5f 42bf d586 2840 8e6e e8bf
00000210: fb82 febf 07ae acbf c6e6 873e 5127 97bf
00000220: 10bf d53e 47fb ad3e a580 0f40 7730 293f
00000230: 1812 813e f18d 91bf d758 c33e 0401 82bf
00000240: 9051 94be caaa 74be 575e 8fbf c24f 613e
00000250: b5c9 e4bf 35a8 233f 11f9 38bf 3078 02bf
00000260: c426 bdbf aba8 5f3f 962b d03e 6e2f 663e
00000270: 4c79 673f 7fdc 8bbf d451 a53f b920 c93f
00000280: fe9d c03e 0c8a 8ebf 5901 8a3f 4778 0f40
00000290: 3762 ec3e 0394 b73e 8d02 47bf 5804 d9bf
000002a0: 0375 133f df57 3ebf 8f04 47bf 2f77 60bf
000002b0: 6198 7abf 39b5 cdbe 2453 95bf 7d59 6cbf
000002c0: 0d1c c3be 84e9 0b3e a997 82be 04d7 123f
000002d0: 4a3f 013f 4a19 dfbd 57f5 15bf 4c53 8bbf
000002e0: dcbf 0d3f ff17 4c3f a28f a63e 3423 b73f
000002f0: 529f 83bd 3cfc 283f 683a afbf e664 b13d
00000300: b4ba 723d 1893 c73e 7352 2cbe 2208 cf3e
00000310: 1559 ae3e db0c 783e 5a9b aabe 321b 683e
00000320: 75ec 5ebe 65d9 15be 5cc0 a0bd c9ad 9abe
00000330: deb4 83bd 5d35 b43e f650 94bd 982a 913e
00000340: 61b5 f43d 65c1 c03d 337d 323e 05a4 303d
00000350: b931 de3e 903e 1dbe 0331 713e 2862 bb3c
00000360: 11ec d63e 599f 0bbf 4dc3 8ebe e68a 4dbe
00000370: dc19 e3be c64b c93e 8432 cebe 6f85 cebe
00000380: 303e acbe d6a6 1b3e 627b 4cbd 75a3 75be
00000390: ddb8 85be 0ba0 3fbe 7515 46bd 0f8e e13e
000003a0: e443 a6be 70db 81bb 820b 313e b6d8 d7bc
000003b0: f19d ab3d 858c 03bd 5c10 ef3e a61a 983e
000003c0: 7c7d e6bc 852a 2abe 9972 91bd 1547 1ebe
000003d0: 05af 8dbc 5c4a f73d a5d5 3d3e 1765 fc3e
000003e0: a691 c6bb 43f3 dbbe e755 c9bd ec7a 78be
000003f0: 6c86 8c3d fdda 5a3d 4692 a43e d727 be3c

f2.bias f4 [64]
0.102557585 -0.37061247 -0.20668937 -0.07949517 0.04758979 -0.21658029 0.13411614 -0.03539129
0.055654373 0.16325176 -0.2312491 0.01699897 -0.2366491 -0.26388752 -0.012084465 -0.1367732
-0.079911485 -0.051332116 -0.029625557 -0.34595433 -0.29943818 0.12965477 -0.17606317 -0.11776046
-0.023678891 0.3703901 0.093137994 -0.087710865 0.13335693 0.10064418 0.032206807 -0.074032485
0.086784884 -0.86076397 -0.2748989 -0.27882075 -0.073063105 0.17811261 0.15883698 -0.12930179
0.3132283 -0.12790312 -0.16377035 -0.0825595 -0.0701322 -0.6150572 -0.25513947 -0.7742606
0.012775076 -0.13799296 -0.10729809 -0.065896556 -0.07884615 -0.036601663 -0.11390196 -0.3669838
-0.11931366 -0.1381528 0.08526637 0.028567279 -0.20806621 -0.27080247 0.08551476 0.08589823
00000000: b609 d23d ebc0 bdbe 61a6 53be 5dce a2bd
00000010: 83ed 423d 39c7 5dbe be55 093e 75f6 10bd
00000020: d7f5 633d 782b 273e 90cc 6cbe 6d41 8b3c
00000030: 2454 72be 441c 87be ebfd 45bc 460e 0cbe
00000040: a2a8 a3bd a041 52bd 4cb1 f2bc ed20 b1be
00000050: f64f 99be 38c4 043e e749 34be 652c f1bd
00000060: 3cfa c1bc c5a3 bd3e 22bf be3d c1a1 b3bd
00000070: b88e 083e 891e ce3d 49eb 033d 589e 97bd
00000080: 46bc b13d 075b 5cbf 8cbf 8cbe 98c1 8ebe
00000090: 1ca2 95bd 2763 363e 29a6 223e b067 04be
000000a0: 765f a03e 09f9 02be 6ab3 27be f514 a9bd
000000b0: 79a1 8fbd 6374 1dbf a4a1 82be f135 46bf
000000c0: 8d4e 513c 074e 0dbe 1abf dbbd c6f4 86bd
000000d0: 177a a1bd a0eb 15bd 6e45 e9bd 4de5 bbbe
000000e0: b85a f4bd ed77 0dbe 22a0 ae3d ed05 ea3c
000000f0: 4f0f 55be 9fa6 8abe 5d22 af3d 69eb af3d

f4.weight f4 [1, 64]
-0.06787317 -0.06670853 -0.06453527 0.05949341 0.063351676 -0.15574765 0.06264207 -0.06861534
-0.19014616 0.06317454 -0.051753074 -0.059097458 -0.0560228 -0.06593912 -0.055828515 -0.1307869
-0.16935858 -0.1672864 -0.0070330016 -0.053131968 -0.068129994 -0.17131338 -0.17704326 -0.057559744
0.056896254 0.065756895 -0.05906323 -0.05885696 -0.05589662 0.06109273 -0.053262595 -0.06663045
0.066133834 -0.050558947 -0.06870456 -0.05962758 -0.05901352 0.06375272 0.064632446 -0.18591605
0.06509824 -0.25226423 -0.13766305 -0.07132669 -0.058003556 -0.06299085 -0.14838798 -0.058117148
-0.090184025 -0.06934677 -0.058979392 -0.06254953 -0.07040161 0.0095327515 -0.055994544 -0.06917171
-0.20064412 -0.063130364 0.06909483 -0.06250685 -0.05871137 -0.06346171 0.062008463 -0.06382542
00000000: 1701 8bbd 7b9e 88bd 112b 84bd 5daf 733d
00000010: 86be 813d 507c 1fbe 7c4a 803d 3386 8cbd
00000020: adb5 42be a761 813d 08fb 53bd 2d10 72bd
00000030: 2a78 65bd 170b 87bd 71ac 64bd 00ed 05be
00000040: 566c 2dbe 204d 2bbe 1875 e6bb e8a0 59bd
00000050: bd87 8bbd c66c 2fbe d44a 35be c4c3 6bbd
00000060: 0c0c 693d 8dab 863d 49ec 71bd ff13 71bd
00000070: dbf3 64bd 5f3c 7a3d e129 5abd 8c75 88bd
00000080: 2d71 873d e616 4fbd fab4 8cbd 0d3c 74bd
00000090: 29b8 71bd c990 823d 045e 843d c760 3ebe
000000a0: 3a52 853d c728 81be 8bf7 0cbe ba13 92bd
000000b0: 2395 6dbd 5901 81bd 05f3 17be 3f0c 6ebd
000000c0: 67b2 b8bd ae05 8ebd 6094 71bd f819 80bd
000000d0: b82e 90bd 422f 1c3c 895a 65bd e6a9 8dbd
000000e0: a775 4dbe 7e4a 81bd 9781 8d3d 9703 80bd
000000f0: 557b 70bd 37f8 81bd 96fc 7d3d e7b6 82bd
