nn2.pt (torch_old, 18771 bytes, 5 tensors)

f1.weight f4 [64, 2]
00000000: 92d5 0bbf 3157 57bf 159a adbf ef32 083f
00000010: 89a5 0ebc 26ce 71bf 02e8 a9bf 9bda e8be
00000020: 213b 3e3f c875 a73e b2d9 6ebe 412a 24be
00000030: 08a5 6cbf 1006 843e d85d 57bf 4434 7b3e
00000040: e4ad 37bf 3e8d 87be da1a 9ebf d558 e4be
00000050: 1759 95bf 368e b7be 48e8 0ec0 a990 71bf
00000060: 7198 9fbf b1c9 04bf 0b14 aabd a513 29bf
00000070: ba6a 863f a563 b9be 99e3 e5bf 1ab8 0bbf
00000080: 2e49 0bbf c1e8 b6be c594 f13f 1051 4d3f
00000090: ea50 11bf 61f4 a33d ec99 a23f 6a74 313f
000000a0: 7583 f13d 61fd d7be b081 4fbf a339 8ebf
000000b0: 3f0a c03f ea0f a3bd 3dd7 0fbe d988 bd3d
000000c0: 7fd0 ddbe 5af6 03bf 03fa 163f dcf5 053f
000000d0: de6d b9bf 981b a0be 55c7 61bf ec39 87be
000000e0: ccea 37bf fc77 2bbf a2e5 ec3e adbf 65be
000000f0: a7c5 bdbf bc4a a7be b47b 85be 1aee 32bf
00000100: 9d96 63bf d5c9 74bf e1c6 06bf 7bc9 c0be
00000110: a618 783f e2aa ebbd 32fa 9e3f 3f40 803f
00000120: 7042 02c0 bd62 bebe 6226 b1bf 6f18 86be
00000130: cf39 9c3f bfb8 203f a060 19bf 4832 8abf
00000140: 1ede 50c0 6582 c9be b8ab 453e 8da5 90bf
00000150: 21d5 debf 58c0 a0bf 2b44 a6bf a149 cebf
00000160: a051 753f c6ce 41be 96c4 8cbf 62bf b2be
00000170: 6d0c 12bf c5b2 9cbf f628 45bf dc3d f4be
00000180: 99f5 0b40 afc0 353f 2783 d8be 2a54 5cbf
00000190: d571 6dbf 1ba5 32bf e82c 94bf 8d4f 64bf
000001a0: 3fb9 a0bf a45c 8dbf 0f77 94bf 25fe 25bf
000001b0: 42b3 5e3f eac3 863c 7200 dabd 5129 46bf
000001c0: 943c ea3f 7105 873f 5af8 15bf 2846 8abe
000001d0: 9aa4 51bb 8e83 0cbd cd00 273f 446d 67bd
000001e0: c86a 32bf 65ef 5abf 9f06 86be 2f4f 16bf
000001f0: bb5d a7bf e747 efbd b8b0 d2bf ab9c ddbe
-0.5462276 -0.8411742 -1.3562647 0.5320272 -0.008706459 -0.9445518 -1.3273928 -0.45479283
0.74308974 0.32707047 -0.23325232 -0.16031744 -0.9243932 0.25785875 -0.8412757 0.24531657
-0.7174971 -0.26474947 -1.2351944 -0.44599023 -1.1667813 -0.35850686 -2.2329273 -0.9436136
-1.2468396 -0.51870257 -0.08304604 -0.660456 1.050132 -0.36208835 -1.7960082 -0.5457779
-0.5440854 -0.35724452 1.8873526 0.80201817 -0.5676409 0.08005596 1.2703223 0.6931826
0.117926516 -0.421855 -0.8105726 -1.1111339 1.5003127 -0.0796202 -0.1404695 0.09254617
-0.43323132 -0.5154778 0.5897524 0.52328277 -1.4486654 -0.31271052 -0.8819478 -0.26411378
-0.71842647 -0.66979957 0.46268946 -0.224364 -1.4825944 -0.32674205 -0.2607094 -0.69894564
-0.8890169 -0.9562047 -0.52647215 -0.37653717 0.9691261 -0.11507203 1.2420104 1.0019606
-2.035305 -0.37184706 -1.3839839 -0.26190516 1.2205142 0.627819 -0.59913063 -1.0796595
-3.263557 -0.39357296 0.19303787 -1.1300522 -1.7408792 -1.2558699 -1.2989553 -1.611622
0.95827675 -0.18926534 -1.0997493 -0.34911638 -0.5705021 -1.2242056 -0.77015626 -0.47703445
2.186865 0.70997137 -0.4228756 -0.86065924 -0.9275182 -0.6978318 -1.1576204 -0.89183885
-1.2556533 -1.1043897 -1.1598834 -0.6484092 0.86992276 0.016450841 -0.10644616 -0.77406794
1.8299737 1.0548536 -0.5858208 -0.2700665 -0.003198898 -0.034305148 0.65235597 -0.05650069
-0.69694185 -0.8552154 -0.26176926 -0.58714575 -1.3075479 -0.11683636 -1.646018 -0.4328359

f1.bias f4 [64]
00000000: a3a6 66bf 784d e33d bfa4 ac3e 5e79 ee3e
00000010: ae76 75bf 54c9 933e 1f72 233e 4d9f 1a3e
00000020: 52b4 743e bc65 6abf 8872 b33e ca2a f23d
00000030: 2b39 9f3e c262 093e 5fa2 a4bd 72ef 423e
00000040: 0cb8 263e 559f 54bf 8f29 ba3e 9fbb d73e
00000050: 10d3 f7bd 9515 d73e 1f42 b2be 43ee 0abe
00000060: f9df f0be 752d d5be 79ec c43e ac04 403e
00000070: 7bbe 493e 2c52 a4bf 2991 3c3e e6d5 9a3e
00000080: c5da a03e 8246 393e 1e98 bebd 8afd 1abf
00000090: 6664 d03d d8f8 693e 6df8 a5be 7bd6 a23e
000000a0: ad0b 1f3e 7f85 25bf 40b8 b43d 99d1 98bf
000000b0: 87bb 15bf ac7d ce3e fba0 c83e 8fe8 b83e
000000c0: 0f81 42bf 7525 23bf ded1 833e 8c91 933e
000000d0: 0105 853e 3918 3f3e d660 eabd aec6 bc3e
000000e0: 4d1e 5ebf 6740 0fbf 0c5c 063e 4fbb 93bd
000000f0: cc32 b43e 6a39 b63e 6861 1abf ea56 283e
-0.9009802 0.1109876 0.3371944 0.4657697 -0.95884216 0.2886454 0.15961502 0.15099831
0.23896912 -0.91561484 0.35048318 0.118245676 0.31098303 0.1341658 -0.08038782 0.19036654
0.16281146 -0.8305562 0.36359832 0.4213533 -0.12100804 0.42008653 -0.3481607 -0.13567452
-0.47045878 -0.41636243 0.38461664 0.18751782 0.19701569 -1.2837577 0.18414749 0.30241317
0.31416908 0.18093303 -0.09306358 -0.6054312 0.101753995 0.22848833 -0.32416096 0.3180426
0.15531798 -0.64656824 0.088242054 -1.1938964 -0.5848927 0.40330255 0.39185318 0.36114928
-0.7597818 -0.6372903 0.25746053 0.2882198 0.2598038 0.18661584 -0.11444251 0.3687033
-0.86764985 -0.55957645 0.1312105 -0.07213461 0.35195005 0.35590678 -0.6030488 0.16439405

f2.weight f4 [64, 64]
00000000: e9c3 9d3d f8f1 853e 1ef9 8ebd f234 bc3c
00000010: 79b9 063e 70a1 42bd de3c 453d 73c9 da3d
00000020: d11e 88bd 7c65 8f3d 91c4 e03d b156 633e
00000030: 18d4 f23c 7f24 923c 674e 4dbe 1482 3f3e
00000040: 7ffd 113e 8bcb d1bc ce33 4cbd 0741 1ebc
00000050: 5aa1 923b 052e 43bc 18ff 0ebd 9d31 93bd
00000060: 5910 353d 7ed1 3f3c 2c40 403e 485f be3d
00000070: 484d 013e 0921 b63d 8c8c 423e 4108 073d
00000080: bd2c 373e 228d ca3d 7f8e bf3c 49c6 00be
00000090: 43e6 be3c 78b4 a63d 070e debd d31c 4b3d
000000a0: 82c4 103e 3ac4 e43d 7eff b93e 27f9 953c
000000b0: 26ae e5bc c2ab 363d 0f94 b5bd c48e 3b3d
000000c0: 69ce 703b 3072 373d 2724 383e acc5 fb3d
000000d0: dff3 393e c589 983e 01d8 cabd d367 703b
000000e0: 080d 9b3c 66fd dfbc 6104 1a3d bb69 94bd
000000f0: 84e6 f03d 5075 39bd 5cc0 a13d 72ee e33e
00000100: fbb7 d7bc c4cd f8bd 15cb 523e 2366 98bf
00000110: 4b51 13be 7fbc 2ebf e360 57be d4e2 b6be
00000120: de8a 81be 6423 19be 8f50 7bbe a290 02be
00000130: f2ed 41be be80 acbd a5b1 d1bc dc0d 783e
00000140: 5114 80be 4ee2 99be 3f21 bfbd efdd debd
00000150: d9cd d9bd 5b80 82bf dfaa 59be 7c5e 0abe
00000160: b87b c63e d351 25bf 4d62 683e 5733 8fbd
00000170: fd7d 81be 1ea1 d1bd c873 bfbe 43d4 7bbe
00000180: d770 6e3d 6a95 163d d511 883e 907f f63e
00000190: df69 cfbe 41ed 233e 86b4 c13e 121d 1dbf
000001a0: 955d 013e b9d4 cbbd 8f2d 43be 9718 c7be
000001b0: e6a6 44be 4a68 c03e 71ec 4ebe 7184 7bbd
000001c0: 9587 80bd 9e37 c9bd b1e5 cbbc 471b 4abd
000001d0: 08cc b4bc 7edc 7f3f bb7d 9d3b d5f0 34bf
000001e0: 0b27 81bf 2141 cdbd 304c 9bbd 9655 b7bd
000001f0: 4366 96be a72d 13bd fcd0 ebbd 59e0 04bd
00000200: 8965 1bbe aedc 3dbf 711d 57be 33d1 bbbf
00000210: a6bc 06be 134a 993d 913f 21bf 0c1c c3bf
00000220: 74ea c0bf 0a46 0dbe 1991 67be f73e c4be
00000230: 86f7 fabe 2f35 3fbd 69a3 803e a049 21be
00000240: 73d5 27be 5514 f8bd 43b7 2a3d 0561 5dbd
00000250: 2d77 c9be 907c 41bf ac8b b83f 7017 cbbe
00000260: e85c 3dbe ef52 23bf 2688 1bbf 6436 adbb
00000270: bbd1 71bf 3ba1 9fbf eb01 a7bf d3fc eabd
00000280: a64e aabd 0adb 9cbe 0c78 d83d acf5 d73f
00000290: 4038 6ebf f047 87bf 9cd9 0cbc f734 80bf
000002a0: efa3 d2be 50fb 03be 1463 0ebf b303 b5bf
000002b0: 7f70 00bf 1cf9 a8bf 1a7f 93bf 7c95 e3be
000002c0: d740 c83e 245e 89bf 0ef9 4dbe fa08 18bf
000002d0: 2e74 a5bf 327b 15c0 3356 9e3e 00a1 fb3c
000002e0: 9587 1abf 41a1 b5bf 34a1 de3d 74ab 4f3e
000002f0: d37d d2be e52e 05be ae08 16bf 7258 94bf
00000300: e8c1 473d d758 20bc c89c b4be 4140 88bd
00000310: 983b 9e3c ddc4 02bd 05c0 6cbc cc5a 79bd
00000320: 2a0e c6bd 844f 313d 69a2 cfbb 323f e33d
00000330: 25f4 733d e884 e53b b72b 39bd 65ac 01be
00000340: 59f5 bd3d c77b 10bd 157e b13b 3b10 4abe
00000350: c068 7abd 36cf cfbc dbdd 943d 3bf9 9f3d
00000360: e1e4 1f3e 541b 17bd 4069 83be 12f2 423d
00000370: 055e 273d 3b54 743e ad3f 143c 1eb1 70bc
00000380: ee67 403e 0ac7 f7ba b046 11bc ec73 3fbd
00000390: f987 4f3c eca3 923d c4c1 6c3d 94cc 133c
000003a0: 52ba b7be f26c f83d 12f0 29be 0aef 003f
000003b0: 0a5f 953e 4a52 ffbd 36eb 2a3d 4b1d 58bd
000003c0: 9b73 5ebd c873 d43d 3045 3c3d c67f 2a3d
000003d0: dfa6 76bd 4d64 9d3d 35eb 3ebe 96d5 83bd
000003e0: 3ab3 c9bc 762d aebd 1278 113d 4464 543d
000003f0: d1d9 eebd b71c 86be 1723 9d3d fe14 e3bd
0.077033825 0.2616117 -0.06981109 0.022974465 0.1315669 -0.04751724 0.04815375 0.10682955
-0.06646503 0.070017785 0.10974992 0.22201039 0.02964215 0.017839668 -0.2004944 0.18701965
0.14256857 -0.025609752 -0.049854092 -0.009659058 0.004474801 -0.011912827 -0.034911245 -0.07187197
0.044205043 0.011707662 0.1877448 0.09295517 0.12627137 0.0889302 0.18998927 0.032966856
0.1788816 0.098902 0.023383377 -0.1257564 0.023303157 0.081398904 -0.10842519 0.049588036
0.14137462 0.1117024 0.36327738 0.018307282 -0.028037142 0.044597395 -0.088661306 0.04579045
0.0036744124 0.044786632 0.17982541 0.12293562 0.18159436 0.2979261 -0.09904481 0.0036682978
0.018927112 -0.02734251 0.037601832 -0.07246729 0.11762717 -0.045277894 0.07898018 0.44517857
-0.026332846 -0.12148622 0.20585282 -1.190617 -0.1438648 -0.6825637 -0.21033053 -0.3571993
-0.2530126 -0.14954907 -0.2454245 -0.12750486 -0.18938425 -0.08422993 -0.025597403 0.24224037
-0.250155 -0.3005547 -0.09332513 -0.10882174 -0.106349654 -1.0195421 -0.21256588 -0.13512605
0.38766265 -0.6457798 0.22693749 -0.06992214 -0.25291434 -0.10235809 -0.37393022 -0.2459269
0.05821308 0.036763586 0.26576105 0.48144197 -0.4051046 0.16008474 0.3783304 -0.6137248
0.12633355 -0.09952683 -0.19060348 -0.38885948 -0.19204292 0.37579566 -0.20207383 -0.061405603
-0.0627586 -0.09825061 -0.024889799 -0.04934242 -0.022069946 0.9994582 0.004806248 -0.7067998
-1.009004 -0.10022188 -0.07582891 -0.08951871 -0.29374894 -0.03593221 -0.1151447 -0.032440517
-0.15175451 -0.74164855 -0.21007325 -1.4673218 -0.13157901 0.07484832 -0.6298762 -1.5242934
-1.507155 -0.13796249 -0.22613944 -0.38329288 -0.4901697 -0.04668158 0.25124672 -0.15750742
-0.16390018 -0.12113253 0.04167868 -0.054047603 -0.39348736 -0.7558069 1.4417624 -0.3966632
-0.18492472 -0.6379842 -0.6075462 -0.005286025 -0.9446065 -1.2471079 -1.304746 -0.11474004
-0.08315782 -0.30635864 0.10569772 1.6871848 -0.9305458 -1.0568829 -0.008596804 -1.0016164
-0.41140696 -0.12888837 -0.5561993 -1.4141754 -0.50171655 -1.3201022 -1.1523163 -0.44449985
0.3911197 -1.0731854 -0.20114538 -0.593887 -1.292608 -2.3356442 0.3092514 0.03071642
-0.6036313 -1.4189836 0.10870591 0.20280248 -0.4111162 -0.1300617 -0.58606994 -1.1589491
0.048768908 -0.009786806 -0.35275865 -0.066528805 0.019315526 -0.031926025 -0.014450078 -0.060877606
-0.0967067 0.043288723 -0.0063364995 0.11096038 0.059559006 0.007004369 -0.045207705 -0.1266342
0.09275312 -0.035274293 0.0054166415 -0.19732754 -0.061135054 -0.02536736 0.07268878 0.07811209
0.15614654 -0.036891297 -0.25666237 0.047594137 0.04086115 0.23860256 0.009048385 -0.0146906655
0.18789646 -0.0018903923 -0.008866951 -0.04674141 0.012666696 0.07160172 0.057801977 0.009020943
-0.3588434 0.12130155 -0.16595486 0.50364745 0.29174072 -0.12466867 0.04172822 -0.05276231
-0.05430947 0.10373646 0.04596442 0.04162576 -0.060217734 0.076851465 -0.18644412 -0.06437223
-0.024621595 -0.08504765 0.0355149 0.051853433 -0.11662639 -0.26193783 0.076727085 -0.11087988

f2.bias f4 [64]
00000000: a31f a43d f43d f5bd 6d28 13be 63ac 433e
00000010: 7a41 653d 510f 1dbd c15b 0b3e 2647 213e
00000020: 4fc4 333e 0161 b53d 31c4 3b3e 1657 a3bd
00000030: b507 003e 22c7 f13d 6e53 28bc 18f7 93be
00000040: e836 343e f072 c43e 6d92 6d3e 7c7b cebe
00000050: 5ace f8be a5c0 283e f1f5 9bbd bcd8 173e
00000060: a919 7d3d 8e58 0a3e 403c 11be e6f8 febc
00000070: 7800 123e b17f 053d d505 043d 8733 363e
00000080: 8a25 71bd c307 7abe 41aa 403d f24f 5fbc
00000090: 25cf dd3d c1ae 5f3d 1134 cebe f32a b9bc
000000a0: 16e6 09be 2b54 d83d 0159 01bf 254c 153b
000000b0: e853 6c3d 9f28 a2bd 10be b13d c354 4d3e
000000c0: 6818 1fbd 1278 c63d a10b 29be 41bd 173d
000000d0: 1bee a73d db29 473c 1097 f73c 89e9 da3d
000000e0: 6b66 fa3d 63af 3b3e fcc5 ce3d 6eb3 093e
000000f0: ac87 5d3e 51f0 0abf e627 3d3e 0982 ac3c
0.08013847 -0.11974707 -0.1437089 0.19108729 0.055970646 -0.038344685 0.1360922 0.15749797
0.17555355 0.08856393 0.1833656 -0.07975595 0.1250294 0.1180556 -0.010273797 -0.28899455
0.1759907 0.3836894 0.23200388 -0.40328586 -0.48594934 0.16479738 -0.07615269 0.14828771
0.06179205 0.13510343 -0.1418314 -0.031124543 0.14257991 0.03259248 0.032232124 0.17793094
-0.05887369 -0.24417023 0.047037367 -0.0136299 0.10830525 0.054610018 -0.402741 -0.022603488
-0.13466677 0.10562929 -0.50526434 0.0022780981 0.057697207 -0.07917904 0.0867883 0.20051865
-0.038841635 0.0969087 -0.16508342 0.03704572 0.08199712 0.012155975 0.0302234 0.106890745
0.12226566 0.18328623 0.10096356 0.13447353 0.21633786 -0.54272944 0.18472251 0.0210581

f4.weight f4 [1, 64]
00000000: 5ce8 e5bd da2b 993f 899f 433f 1be6 ccbd
00000010: 33e2 833d 4983 833e 30b1 0abe 500d 01be
00000020: 69f6 1fbe 9a83 afbd 48f4 dfbd e55c 273d
00000030: b368 b6bd e9b6 f7bd 50f7 283f 3d25 4e3e
00000040: 1668 a9bd 63ae 78bd 4631 a7bd ebc0 833f
00000050: 5c22 873f 8129 18be 138e 95be 5a42 d1bd
00000060: 2cd2 c7bd 9a3e e6bd 4683 5f3f f2f7 453d
00000070: e617 f7bd 1185 abbd 5cac eebd e4c0 f6bd
00000080: 36f5 b63d 4b13 f73d cbe9 623d 5e68 0c3e
00000090: d501 1cbe 16de d2bd 8784 703f cfc2 873d
000000a0: a91e ac3e 7d05 afbd fca4 a23f 40e4 5a3d
000000b0: 9a6a a43d 0143 a43d 7681 c4bd a8e3 ccbd
000000c0: bff3 e43c a936 02be 1a94 cd3f 1916 bebd
000000d0: 2ed0 cbbd b7af 3b3f 2303 a1be 1b03 e4bd
000000e0: e35f aabd 4539 dfbd 1b70 9fbd b1d9 05be
000000f0: cdec 78be cb86 4b3f 5982 01be 8936 d3bd
-0.1122596 1.1966507 0.76415306 -0.10004827 0.064396285 0.256861 -0.13544154 -0.12602735
-0.15621342 -0.08570023 -0.10935265 0.040860076 -0.089066885 -0.12095434 0.6600237 0.20131393
-0.08271806 -0.060713183 -0.08163695 1.0293249 1.0557361 -0.14859582 -0.29209957 -0.10217734
-0.09756884 -0.11242409 0.8730968 0.048332162 -0.12065105 -0.0837499 -0.11653969 -0.1204851
0.08933489 0.12064227 0.055398744 0.13711688 -0.15235074 -0.10296266 0.9395222 0.06628954
0.33617142 -0.08545969 1.2706599 0.053440332 0.08028145 0.080205925 -0.09595005 -0.100043595
0.027948258 -0.12716164 1.6060822 -0.092815585 -0.099518165 0.73314995 -0.31447706 -0.11133405
-0.0831907 -0.10899595 -0.07785054 -0.13071324 -0.24309082 0.7950255 -0.1264738 -0.10313136
