nn3.pt (torch_old, 19027 bytes, 5 tensors)

f1.weight f4 [64, 3]
000000 b1 cc de bf aa fc 6c bf 2b d6 d7 bf c5 d5 3a 3f
       -1.7406217 -0.92573035 -1.6862234 0.72982436
000010 e2 ca 74 3f 9f 46 22 3f 4c 2e f4 be f3 ff a6 be
       0.95622075 0.6338901 -0.47691572 -0.3261715
000020 49 89 f6 3d 16 88 2e 3f 6e 77 67 3e 9c d5 93 3e
       0.12037904 0.681764 0.22604153 0.2887391
000030 2d ea 79 3f d5 1f 37 3f 29 57 32 3f 57 aa 1c bc
       0.9762295 0.71532947 0.69664246 -0.009562097
000040 d2 ba b7 be 0b e8 06 bf 08 53 de be 78 39 b2 be
       -0.3588472 -0.5269782 -0.43422723 -0.3480947
000050 5f b8 04 be eb de 36 bf 10 df 6f bd 82 fc a4 3e
       -0.12960957 -0.71433896 -0.05856234 0.32223898
000060 b5 98 2b 3f ad a8 0b 3f e4 0d 3d 3e 34 f1 11 bf
       0.6702989 0.54554254 0.1846233 -0.5700867
000070 1c 26 08 bf ea 0f 87 be f0 d2 46 bf a6 7f 97 bf
       -0.5318315 -0.2637933 -0.77665615 -1.183583
000080 20 0a 34 bf 28 9c 11 c0 1f 4e ec bf ca de cf bf
       -0.7032795 -2.275156 -1.8461341 -1.6239865
000090 a5 b6 fb 3e 4a ad 45 3f 8c 89 e3 bc 31 13 fd 3e
       0.49162784 0.77217543 -0.027775548 0.49428704
0000a0 73 8d c0 3e 39 95 63 3e 80 ee a7 3f 7d cf 7d 3e
       0.37607917 0.22224893 1.311966 0.24786182
0000b0 21 26 a1 3c 30 2e 4e bf 87 8f 50 bf 69 32 40 bf
       0.019671502 -0.80539227 -0.81469005 -0.7507692
0000c0 3f f3 2c bf ae 29 37 bf 3d 2e ec be 36 9f 54 bf
       -0.67558664 -0.71547973 -0.46129027 -0.83055437
0000d0 de 43 0a bf 7e 40 21 bf 67 9c 3c 3f 5c 19 27 3e
       -0.5400981 -0.6298903 0.7367615 0.16318268
0000e0 1a 2d 73 3e d6 19 2e bf f3 e2 09 be c3 d0 f0 3d
       0.23747674 -0.6800817 -0.1346548 0.11758568
0000f0 7c 33 3a bf 6e c4 ca be bc 43 92 3e 05 86 d8 3e
       -0.7273481 -0.3960299 0.28567302 0.4228975
000100 de 20 d3 3e 2b 66 e2 3e 1f 93 a4 3e df 00 2f 3f
       0.41236013 0.44218573 0.32143494 0.68360704
000110 bc 26 2f 3f 1a 35 ea bf 47 f9 b6 bf a2 5a c7 bf
       0.6841848 -1.8297455 -1.4294823 -1.5574534
000120 80 f2 79 3e 95 49 46 be 02 67 fc bd 3c 17 93 3d
       0.24408913 -0.19364007 -0.12324335 0.07182166
000130 e8 89 2a 3f 64 df ec 3e fd 86 eb be c2 58 b9 be
       0.6661668 0.46264184 -0.46001425 -0.3620053
000140 d4 da 8b be e8 ab 12 bf a0 c4 1d bf 8a 8b 37 bf
       -0.2731539 -0.5729356 -0.6162815 -0.71697295
000150 c7 6d bb 3f aa 9a 87 3e 54 b1 4e 3f 93 de aa 3e
       1.4642876 0.26485187 0.8073933 0.33372936
000160 1e 30 4a be b8 3a 98 be 08 5f c2 3e b9 22 81 3e
       -0.19744918 -0.297323 0.37963128 0.25221804
000170 3e 00 b3 3e fd d1 46 3e 5d 1f b2 3e ea be 5a 3e
       0.34961122 0.19416042 0.34789553 0.2136189
000180 6e 4f c5 be ad 7c f2 be a2 39 13 3d 2b d2 e1 3e
       -0.38537163 -0.47360745 0.035943635 0.44105658
000190 d5 6c 80 3f 26 7f 8b be 53 ff 53 be f1 7e 13 bf
       1.0033213 -0.27245444 -0.20702867 -0.5761557
0001a0 01 88 e5 be e1 46 da 3e 38 4a 00 bd 07 65 28 3f
       -0.44830325 0.426322 -0.03132078 0.65779155
0001b0 29 d4 22 3f 02 78 bd bd 78 92 4c 3d eb df 66 bf
       0.6360498 -0.09251405 0.04994437 -0.9018542
0001c0 b7 8d 00 be 89 fc 96 3d d2 92 21 3e ad ce d9 bc
       -0.1255406 0.07372386 0.15778664 -0.026587809
0001d0 0a 87 da bd fc 94 0f 3f 84 f6 47 3d 59 59 13 bc
       -0.10670288 0.5608671 0.04881908 -0.00899347
0001e0 93 73 fa be c3 0d 37 bf 20 87 c9 be 44 63 ae be
       -0.489163 -0.71505374 -0.39360905 -0.3406011
0001f0 05 8f f0 bd cd 7e 63 3b 92 75 2e be 08 19 59 bf
       -0.11746029 0.003471303 -0.17037037 -0.8480382
000200 ab 70 60 bf fc 27 2d 3f 45 7f 78 bd c4 a3 8d 3e
       -0.8767192 0.67639136 -0.06066825 0.27664006
000210 a1 ea 08 3e 98 8b f0 3e cd fa 2e bd 59 07 6d bf
       0.13370754 0.46981502 -0.04271965 -0.92589337
000220 d3 fe 6f be 48 bd cf 3e 2b e3 90 3f 9d d3 87 3e
       -0.23437051 0.40574098 1.1319326 0.26528636
000230 f8 97 c5 bc f2 ce 3d be 8e 92 10 3f 23 1a 2f 3e
       -0.024120316 -0.18535975 0.56473625 0.17099814
000240 df e1 e7 bd 5d 13 04 3d 7e 33 a8 3c a1 33 47 3d
       -0.11322378 0.03224503 0.020532366 0.04863322
000250 eb 41 19 3f 29 6b e3 3e ff 4b 37 3f ca bd 37 3f
       0.5986621 0.44417694 0.71600336 0.7177397
000260 82 b7 7f 3f ef 42 f2 be 8b 86 b2 be 9a 98 23 be
       0.99889386 -0.4731669 -0.34868273 -0.15976182
000270 56 1e da be 18 72 b1 be c1 5b 8a be 38 e3 d8 be
       -0.4260127 -0.3465736 -0.27023128 -0.42360854
000280 4d d9 72 be f3 53 c7 3d 67 1b 04 3f 61 41 0f 3f
       -0.23715706 0.09732809 0.5160431 0.55959135
000290 74 18 7c 3e 99 d5 96 bd 1a 3b aa be 6f 05 4f be
       0.24618703 -0.07364959 -0.33248216 -0.20216917
0002a0 3e f2 b1 3e f6 74 ad 3e fa 22 5f 3e 86 86 85 3f
       0.3475513 0.33878297 0.21790686 1.0431678
0002b0 ce fa 8e 3e 44 5a 9d 3e 6d 77 20 3e af 74 a5 be
       0.27925724 0.3073293 0.15670557 -0.32315585
0002c0 97 d8 31 bf 70 46 45 3f bf 8e 21 be 06 04 fb bd
       -0.69471115 0.77060604 -0.1577711 -0.12256627
0002d0 b3 f9 24 3f 4a 55 8f 3f 11 86 1c 3f 71 c8 c0 3e
       0.6444351 1.1197903 0.6114207 0.37652925
0002e0 11 6b f3 3e 06 28 92 3e c3 8a f3 3e 27 b1 df be
       0.47542623 0.2854616 0.47566804 -0.43689844
0002f0 68 11 86 3e 0d 4b 3c 3f e6 78 5a 3f 2a af 30 3f
       0.26185155 0.7355202 0.85340726 0.6901728

f1.bias f4 [64]
000000 da 53 9b 3d 94 3b 33 bf 00 de 3c 3e c2 ad d9 be
       0.07584353 -0.70012784 0.18444061 -0.4251538
000010 0c e3 49 bf 2e ca b7 3d a0 19 af 3e b5 04 2c 3e
       -0.7886207 0.089741096 0.34199238 0.1679867
000020 85 84 10 bf 8f 6e 6c 3e 6b 0e ed 3e 68 f7 5a 3e
       -0.5645221 0.2308905 0.46300063 0.2138344
000030 65 c1 16 bf 19 c6 3c be 81 a8 28 bf b6 f5 8b 3e
       -0.58888847 -0.18434943 -0.65882117 0.273359
000040 51 83 8a 3e 85 c9 98 3e e7 e7 d9 be 1b eb ac 3e
       0.2705331 0.29841247 -0.4255974 0.3377312
000050 c3 d8 85 3e db 7f fd be f4 b7 03 bf b6 d9 12 3e
       0.2614194 -0.49511608 -0.51452565 0.14340863
000060 62 be 31 bd 66 71 33 be 25 ab 98 3e bd fa 08 3e
       -0.043394454 -0.17523727 0.29818073 0.13376899
000070 bc d3 3b bf 05 c9 9f bd e3 a2 9a be c8 5a f0 bd
       -0.73369956 -0.07802013 -0.30202398 -0.11736065
000080 e5 c2 4e 3e 51 11 17 bf 68 12 a1 3e e6 b9 99 be
       0.20191534 -0.590108 0.31459355 -0.30024642
000090 3a b5 99 be 84 59 dd 3e e6 ee 18 be 37 f9 ad be
       -0.30021077 0.43232358 -0.14934883 -0.33979198
0000a0 91 74 bb 3e a3 6f 4c 3e bd 22 19 3e db 51 b4 be
       0.3661237 0.19964461 0.14954658 -0.352187
0000b0 ec 13 9d be 97 dc 89 3e 64 50 9f be 17 ab 65 be
       -0.30679262 0.2692611 -0.3111602 -0.22428547
0000c0 7f 95 4a bc dd 1a a1 be a3 82 15 bf f9 b8 b6 3e
       -0.012364744 -0.31465808 -0.5840246 0.35687998
0000d0 c5 e4 88 3e 57 4d 93 3e c2 85 85 be 24 e5 2c 3e
       0.26737037 0.28769943 -0.26078612 0.16884285
0000e0 0a 8f 14 be b9 a0 22 bf 2e a1 88 3d be 98 b2 be
       -0.1450769 -0.63526493 0.066713676 -0.34882158
0000f0 29 22 fd be 39 4f 61 be da 80 0f be db 3f 35 bf
       -0.49440125 -0.22002877 -0.14013997 -0.7080056

f2.weight f4 [64, 64]
000000 43 db 94 3e ce 5d 26 be 10 65 35 be 88 b9 cf bd
       0.29073533 -0.16246721 -0.17714334 -0.10142809
000010 23 05 8d be 37 55 6e 3c 34 19 01 bd f1 c2 67 be
       -0.27542982 0.014546684 -0.031518176 -0.22632958
000020 6e 86 ff bc bd 60 53 be 1b 5d 8a 3f 7a 96 38 3e
       -0.03119203 -0.20642371 1.0809664 0.18026152
000030 51 7f 8b bd 07 b2 b6 be 6e 26 b9 3e e5 08 75 be
       -0.06811393 -0.356827 0.36162132 -0.23929174
000040 91 19 1a be a6 9d 3f be 59 50 fe be 03 b3 b4 bc
       -0.15048815 -0.18712482 -0.49670675 -0.022058016
000050 74 00 e4 bd f7 bc 5c be 4a c9 cf be 36 92 43 be
       -0.11132899 -0.2155646 -0.4058326 -0.19098744
000060 be 41 25 be 4a 41 cb be ee 97 09 bd a7 b1 dc bd
       -0.1613836 -0.3969825 -0.033592157 -0.10776072
000070 f9 6f a3 3d 38 a8 2c bf 24 54 82 be 84 51 fa b9
       0.079803415 -0.6744418 -0.2545482 -0.0004774445
000080 d7 e1 2d be 3f f2 f7 3d a4 c0 42 bd 69 44 f9 be
       -0.16980682 0.12106752 -0.047546998 -0.48685005
000090 1a 65 44 be e4 e9 40 bc 8a 33 89 3d 1b c8 37 be
       -0.19179192 -0.011774514 0.066992834 -0.17947428
0000a0 e0 17 24 bd d5 b8 3f bc 71 41 a6 be 47 89 32 be
       -0.04006183 -0.011701782 -0.32471803 -0.1743518
0000b0 03 0f 87 be 43 0c 25 be 9b 77 07 be 0d 2d b7 bb
       -0.2637864 -0.16117959 -0.1322922 -0.0055900873
0000c0 f4 1e 59 be 99 bc 41 be b2 9b d4 3d 0b dc e8 bc
       -0.21203214 -0.189196 0.10381259 -0.028425237
0000d0 9c bb 2f bd e6 01 23 bd 14 ce e9 bd ea 32 90 bd
       -0.042903528 -0.039796732 -0.114162594 -0.07040961
0000e0 fd 6c 29 bd c4 27 03 be 18 02 ba bc 3a 2c 1e be
       -0.041363705 -0.12808138 -0.022706077 -0.15446559
0000f0 a0 ba af be 07 a0 e5 bd 71 f7 1a be b2 a4 16 be
       -0.3432207 -0.112121634 -0.15133454 -0.14711264
000100 a1 17 f3 3d 71 49 4d be d3 91 7c bd 9b e1 c7 bd
       0.11869741 -0.20047547 -0.061662506 -0.09759828
000110 b0 a8 a8 bd 8c 47 20 3e d2 08 d7 3d eb 71 c8 3c
       -0.082352996 0.15652293 0.10499729 0.024468383
000120 74 44 a1 3c 89 1a 04 be 83 2d 48 3f 7f 47 d8 3d
       0.019685961 -0.12900747 0.78194445 0.10560512
000130 ed d4 16 be f7 a9 59 be 68 31 4f be 72 a9 d7 3d
       -0.14729662 -0.21256243 -0.2023369 0.10530366
000140 b6 22 8d bd b2 2c 0f be c1 cd 10 be 8d f9 2a ba
       -0.06891386 -0.13981894 -0.14140989 -0.00065221713
000150 c6 85 47 bd 92 b6 68 be 83 50 b2 bd ce 20 fc bd
       -0.04871156 -0.22725895 -0.08706763 -0.123109445
000160 bf fd b3 bd 02 21 8e be 16 fd cc 3d 74 73 00 3e
       -0.087886326 -0.27759558 0.1000921 0.12544042
000170 ee 13 59 be 0e b3 16 bf f1 0f f2 bd 57 99 7d 3d
       -0.21199009 -0.58866966 -0.11819447 0.061913814
000180 7f b3 3b bc 2f ff 42 be dd ba 24 bd 70 b3 8d be
       -0.011456369 -0.19042657 -0.04021727 -0.27675962
000190 14 27 0c be 61 83 b7 3c f6 9b c2 3e 3b b9 0c be
       -0.13686782 0.022401514 0.38009614 -0.13742535
0001a0 99 27 ad 3d 53 6c 4d 3e 8f 78 87 3e 36 f9 83 bd
       0.08454818 0.20060854 0.26459166 -0.064440176
0001b0 e9 8e fd 3c 8c d5 95 bd f9 4c d3 be a4 4f b5 bc
       0.030951934 -0.073161215 -0.41269663 -0.022132702
0001c0 c0 74 26 be d8 92 8e bc a5 78 7d bd 06 0d 06 3e
       -0.16255474 -0.017404005 -0.061882634 0.13090906
0001d0 9f c8 86 bd dd 8e be bc a9 70 b3 bd 7f db 60 3d
       -0.06581234 -0.023261482 -0.087617226 0.054896828
0001e0 2e c2 50 bd 4b 4b 10 be db 5a 19 bc 44 fc d3 bd
       -0.050966434 -0.14091222 -0.009360041 -0.1035085
0001f0 e5 65 26 bf eb 5e 32 be c5 37 e9 bd 78 65 d7 bd
       -0.6499923 -0.17419021 -0.1138759 -0.105174005
000200 14 25 f9 3d 7d f7 13 3e fc 93 91 3d 22 58 bc b9
       0.12165275 0.14449878 0.07108304 -0.00035923818
000210 8d 94 6e bd 48 3b 8a bd 74 2f 6b bd 2e f5 07 3e
       -0.058247138 -0.06749588 -0.0574183 0.13277122
000220 39 e0 54 bb 23 26 4c 3e 89 ad 02 3d d6 6b d6 3a
       -0.003248228 0.19936423 0.031903777 0.0016359042
000230 a2 ac b7 3b b4 0b 7b bc df 7f 88 3d 56 c7 33 3e
       0.005605296 -0.015322614 0.066650145 0.1755651
000240 73 a1 c3 3d f2 bb 16 3e f8 3e a2 3d 04 3b 52 3d
       0.09552278 0.14720133 0.079221666 0.051325813
000250 30 c8 98 3d 5c 5c 70 3c dd c3 6a bd c9 84 02 3e
       0.07460058 0.014670458 -0.057315696 0.12745966
000260 df aa 56 3c db ae 39 be 1d 03 2d 3d 45 78 8d 3e
       0.013102262 -0.18133108 0.042239297 0.2763082
000270 33 d6 33 3d 34 bc 29 bd 39 f1 5a 3d 1a e2 30 be
       0.04390545 -0.04143925 0.053452704 -0.17273751
000280 d5 49 19 3e 36 7d b8 3c 31 a1 f6 3d c1 e1 f7 bc
       0.14969571 0.022520643 0.120424636 -0.030259015
000290 de e4 f3 3d 1e 35 77 bc 16 27 5e be e5 fe 63 bd
       0.11908887 -0.015088348 -0.21694598 -0.05566301
0002a0 92 da 8c 3d ef fa 93 bd be 2d 3b 3e cc 2e 6b 3d
       0.068776265 -0.07225596 0.18279168 0.057417676
0002b0 a7 db 45 bd eb dd 3d 3d d4 88 13 be aa 4b 93 be
       -0.04830518 0.046354216 -0.14407665 -0.28768665
0002c0 6a f4 69 bd 1b 0a 6d bd e9 6b 2e 3b 7b 46 38 3d
       -0.057117857 -0.057870965 0.0026614612 0.04498909
0002d0 a7 52 9d 3d ae d7 99 3d d3 53 1d be 38 b6 d7 bb
       0.0768178 0.07511841 -0.15364008 -0.0065830015
0002e0 c7 09 f8 bd 52 7a cd 3b 86 e0 9f bd 22 67 d4 3c
       -0.1211124 0.0062706852 -0.07806496 0.025928084
0002f0 88 52 9d be a5 1e 66 3d d4 73 5f 3d ce d6 d6 bc
       -0.3072703 0.05618157 0.05455382 -0.026225474
000300 e6 8f ac 3d 8a 5a 15 bc af d7 4b 3d b3 42 e0 bd
       0.08425884 -0.0091158245 0.04976624 -0.10950222
000310 2f 82 c2 3d aa 91 78 3a 84 7b b6 bc 76 df 00 3e
       0.09497487 0.0009482155 -0.022275694 0.12585244
000320 ad 0e 88 be 0e 16 53 3e 97 5b 33 bc 7a f5 38 3a
       -0.26573697 0.20613882 -0.01094713 0.0007055622
000330 f2 60 a7 be 65 3e 76 3c 00 a4 12 3e 00 0a 4d bc
       -0.3269115 0.015029524 0.14320374 -0.012514591
000340 dd be 0b bc 88 61 97 3e 82 37 38 3d 78 76 0e bd
       -0.008529392 0.29566598 0.04497481 -0.03478095
000350 18 2f 39 3d 65 b3 c6 bd 8d 7b a5 bd ac 43 af bd
       0.045210928 -0.097021855 -0.08080206 -0.08557829
000360 05 ab 28 3d 23 5e 5a be 59 72 c1 bc ff ab 93 3e
       0.041178722 -0.21324973 -0.023614096 0.2884216
000370 3d c8 9e bd bb 80 17 bd 15 cc 03 3e a3 19 0e be
       -0.07753036 -0.036988 0.1287082 -0.13876967
000380 ca fe 84 3d b6 60 15 be d2 7a f2 3d a6 ab a5 bd
       0.0649391 -0.14587674 0.11839832 -0.0808938
000390 bd c6 69 3b d7 f2 dd 3c 51 c2 0c be e5 c1 c1 3d
       0.0035671436 0.027093334 -0.13746001 0.094608106
0003a0 b2 b3 38 3e 7b 5a 9f 3d 08 e0 c8 3e 71 21 2a 3d
       0.18037298 0.0778093 0.39233422 0.0415358
0003b0 b9 51 1d 3d b9 06 1f 3e f1 c8 a7 bd 8b 33 2e be
       0.038408015 0.15529908 -0.081926234 -0.1701185
0003c0 2c a9 92 bd 13 d4 b3 bc ea e8 c0 bd db e0 1c bd
       -0.07161173 -0.02195171 -0.09419425 -0.038300376
0003d0 ab d4 bb 3d 1f ca 3c 3d 49 da 03 be c1 61 16 3d
       0.091714226 0.046091195 -0.12876238 0.03671432
0003e0 7f 5b 08 be 5a 48 05 3e f0 53 59 bd d6 ed 97 be
       -0.13316153 0.13015881 -0.053058565 -0.29673642
0003f0 ea cb 2d be c1 2c 90 bd 52 b4 11 3c 94 68 62 3d
       -0.16972318 -0.07039786 0.008893089 0.055275515

f2.bias f4 [64]
000000 6f 0d 43 bd 9a e1 93 bc cd e6 8d 3c ba 50 13 3d
       -0.047620233 -0.018051911 0.017321968 0.03596566
000010 9b f0 ea 3d 7e f2 23 3d a0 11 3a 3d 10 4d 66 3d
       0.11471673 0.04002618 0.045426965 0.056225836
000020 51 3c 6a 3c 2f dc 9c 3c 83 64 93 3d 2e b9 66 bc
       0.014296607 0.01914796 0.071969055 -0.014082236
000030 14 ab 4d 3a 47 36 99 bd 49 a6 71 bb c8 68 d0 bb
       0.0007845622 -0.07481056 -0.0036872795 -0.006360147
000040 ce d7 a5 3d f1 c0 9a bc b5 e4 92 3d d4 56 81 ba
       0.08097802 -0.01889083 0.07172529 -0.0009867796
000050 c7 d0 4e 3d 23 1d a4 3c 9f d0 4b 3e 0e cf 08 3c
       0.050492074 0.020033425 0.19903801 0.008350147
000060 5d 6e c0 3d ff 9b 1f be dc 8e b0 3b 88 cc 6d 3d
       0.0939605 -0.15586852 0.005388124 0.058056384
000070 80 54 f4 3c 3b 8b 40 3d 86 43 98 3d 61 8e 56 3d
       0.029825449 0.04700778 0.07434754 0.052381877
000080 d4 3f d8 3c 79 2b e7 3c a1 19 13 3e c3 9a 2b 3e
       0.026397623 0.028218972 0.14365245 0.16758256
000090 63 3a 27 3d e7 71 b6 3c 5b 8f 23 be 24 7b 8a 3d
       0.040827166 0.02227111 -0.15972655 0.067617685
0000a0 f0 32 8e be 83 ee 2c 3d 87 ab 1e 3d 1f ed 84 3d
       -0.27773237 0.04221965 0.0387378 0.0649054
0000b0 82 c1 b4 3c 80 2f 6a 3d 91 d5 8f be 89 a3 a8 3c
       0.022064928 0.057174206 -0.28092626 0.020585792
0000c0 8a 03 24 3e ca 3a 4d 3c 8a 31 cb 3d 28 c6 aa be
       0.16016975 0.012526223 0.09921558 -0.33354306
0000d0 0c 70 9a 3c d6 4e dd bc 29 e3 8e bc 38 3b fe 3c
       0.018852256 -0.027015131 -0.017442303 0.031034097
0000e0 64 3e 85 be 83 f9 4e 3d 80 f8 55 3d f5 76 cb bb
       -0.26024163 0.05053092 0.05223894 -0.006209249
0000f0 e4 f3 67 be be 91 26 3d d8 46 99 3d a9 da b8 3c
       -0.2265163 0.040666334 0.074842155 0.022565203

f4.weight f4 [1, 64]
000000 7b c7 82 3f 5f d2 18 3e 46 98 e3 bd 1e 27 c3 bd
       1.0217127 0.14924 -0.11113028 -0.095289454
000010 e6 61 10 be 37 7d 03 bd d3 4f 26 bd 50 01 a1 bd
       -0.14099845 -0.032101836 -0.04060347 -0.078615785
000020 88 75 08 bd 98 ee 83 3e cf c4 e4 3e d6 1b da 3e
       -0.03331521 0.2576797 0.44681403 0.42599362
000030 49 b5 52 be 24 33 96 3e 50 b3 a1 bd 71 18 33 3e
       -0.20576967 0.29335892 -0.07895529 0.17489792
000040 e3 9e 1e be 90 cb 74 3f cf 5a 82 bd 3a 64 97 be
       -0.15490298 0.9562311 -0.063649766 -0.29568654
000050 16 c5 b6 bd 4a f3 74 bd b6 5b 21 be 5b e6 a1 bd
       -0.0892431 -0.05980233 -0.15757641 -0.07905265
000060 a6 6d ac bd ff 27 42 3f 09 53 9d be 07 4d 36 3f
       -0.08419351 0.7584228 -0.30727413 0.71211284
000070 9b e1 81 bd 93 15 be 3e bb c6 5e bd 32 13 f8 bc
       -0.06341859 0.37125835 -0.054388743 -0.03028259
000080 29 a6 b3 bd bd ae f7 bd ed 16 eb be 82 d1 da bd
       -0.08771927 -0.120938756 -0.45915928 -0.10684492
000090 77 59 91 bd 76 ad 1b 3e f0 33 17 bd 94 4d 99 bd
       -0.07097142 0.15202889 -0.036914766 -0.074855
0000a0 40 1e 09 3f cb 09 06 bd a0 c3 3b 3f e1 4d e9 bd
       0.5356178 -0.032724183 0.73345375 -0.11391807
0000b0 b4 cc 3e 3e 29 ce ff bd d5 7a 1b 3f 93 76 d3 bd
       0.18632776 -0.12490494 0.607343 -0.103253506
0000c0 2e bc 09 3f 4d 43 d3 3e ce 8c b4 bd a1 2d 0e 3f
       0.53802764 0.41262284 -0.08815919 0.55538374
0000d0 59 80 0b 3f 91 62 f7 be d0 66 1a 3f 7c 79 8d bd
       0.5449272 -0.48317388 0.6031313 -0.06907937
0000e0 11 ca 25 3f 6d de 59 bd 0d a0 48 bd 78 d0 1e 3e
       0.64761454 -0.053190637 -0.04898076 0.15509212
0000f0 ac 68 34 3f 14 b7 ee bd db de ca bd fd 1a 62 bd
       0.70472217 -0.11656013 -0.099057876 -0.05520152
