nn4.pt (torch_old, 19027 bytes, 5 tensors)

f1.weight f4 [64, 3]
0.5576581 -0.54314715 1.9410372 0.90627337 0.81730485 0.24946359 1.3740396 0.41676414
0.4048743 -0.38547012 0.10714275 0.27052802 -1.2633513 -1.3742193 -0.6809058 1.1198473
0.18658997 0.19803767 -1.3743445 -0.8500641 -0.69017434 0.13661386 0.13478768 -1.5246149
0.72272426 0.2958926 -0.2214122 -1.083139 -1.0632674 -0.75762653 0.6751614 1.2078902
-0.50019497 0.7241874 0.37670922 0.9588373 0.7792945 0.22708648 -0.18724222 0.7295311
1.2835552 0.6597848 1.3357502 0.6103591 0.45923397 -0.42365783 -0.82810676 -0.26663384
-0.21428409 -0.09697117 -0.025638023 -0.0572719 -0.10958653 0.032842107 0.5074175 0.5943817
-0.16927984 -2.2171834 -1.780472 -0.25504678 -2.6415026 -0.80821145 -1.387804 0.6712456
-0.114904605 -0.10051045 -1.666882 -1.3534523 0.48896834 -0.42066988 -0.90867126 -0.0890849
0.90142936 -0.06815821 1.1200204 0.849153 0.84177315 0.36700362 -0.5013382 -0.19376281
-0.28170013 -0.42765582 -0.54668814 -0.19586693 -0.6812962 0.2402553 0.52217674 0.9564494
0.8278851 0.32234746 -0.6177874 0.051258855 0.59721184 -0.84244215 -1.1898315 -0.6564119
-0.31489328 -0.06695218 0.07501129 -1.0866529 -0.48334274 -0.6986585 -0.080677964 -0.10840429
-0.029105447 -2.0578039 -2.2873795 -0.58445936 -0.33679897 -0.39980763 -0.81037325 0.006858081
0.15691105 0.20381565 0.6862597 0.91493744 0.39365095 -0.6724371 -0.6753037 -0.8244977
-0.048019778 -0.1779697 0.0042722104 -0.16382904 -1.0532503 -0.5826706 -1.0066197 -0.6187184
-0.30222973 -0.69769406 -0.16391654 0.43175787 -1.4913319 -1.2541188 0.088067 -0.4172034
-0.038715314 0.32020867 -0.086060055 -0.1659697 -0.022027 -3.2426853 -2.0104086 -1.8170917
-3.1087844 -0.8041233 -1.5203111 -1.0312732 -0.79944646 -0.30683014 -0.4904224 -0.025804834
0.4390853 0.12828852 -0.059484337 -0.9389612 0.3316085 0.08092817 -0.18216108 -0.38673297
-0.292493 0.3159076 -1.1218102 0.1835322 -0.13863184 0.19740482 0.27598694 -0.26731172
-0.4558922 -0.57934684 -0.31297702 -1.5306903 -1.0704365 -0.0315958 0.47872582 0.5925908
1.0461633 1.0350951 0.8500833 0.069529705 -1.5982331 -1.560132 0.10555871 -0.3133004
-0.14215066 0.21861431 -0.5981767 -1.0969365 -0.6686548 -1.2502968 -3.3647678 1.9537013
00000000: aec2 0e3f b10b 0bbf e873 f83f 8801 683f
00000010: e43a 513f 6273 7f3e 88e0 af3f 1c62 d53e
00000020: af4b cf3e 575c c5be a86d db3d a682 8a3e
00000030: 7fb5 a1bf 6be6 afbf d84f 2ebf 2857 8f3f
00000040: 7111 3f3e 63ca 4a3e 85ea afbf cd9d 59bf
00000050: 44af 30bf 81e4 0b3e c805 0a3e 9526 c3bf
00000060: 7504 393f 3c7f 973e e1b9 62be 4ca4 8abf
00000070: 2519 88bf d0f3 41bf 61d7 2c3f 259c 9a3f
00000080: c70c 00bf 5864 393f 08e0 c03e 5c76 753f
00000090: d87f 473f 5c89 683e 6dbc 3fbe 8dc2 3a3f
000000a0: 894b a43f a8e7 283f ddf9 aa3f 7e40 1c3f
000000b0: b720 eb3e aee9 d8be cefe 53bf 3b84 88be
000000c0: 4a6d 5bbe d298 c6bd d506 d2bc f195 6abd
000000d0: e76e e0bd 7285 063d 1de6 013f 6629 183f
000000e0: b257 2dbe 55e6 0dc0 82e6 e3bf 7e95 82be
000000f0: 610e 29c0 f2e6 4ebf 90a3 b1bf c0d6 2b3f
00000100: 1b53 ebbd 6cd8 cdbd 645c d5bf ed3d adbf
00000110: 0f5a fa3e 0b62 d7be ae9e 68bf 2572 b6bd
00000120: 13c4 663f 8896 8bbd d45c 8f3f 1762 593f
00000130: 727e 573f e6e7 bb3e b357 00bf c269 46be
00000140: 003b 90be b4f5 dabe c1f3 0bbf 5791 48be
00000150: 6e69 2ebf 7c05 763e 60ad 053f ded9 743f
00000160: 47f0 533f ba0a a53e 5127 1ebf cef4 513d
00000170: e0e2 183f 4aaa 57bf 664c 98bf 9c0a 28bf
00000180: b139 a1be 391e 89bd 859f 993d 7117 8bbf
00000190: b378 f7be 49db 32bf 7d3a a5bd 1203 debd
000001a0: 8c6e eebc 0fb3 03c0 6d64 12c0 219f 15bf
000001b0: ea70 acbe 96b3 ccbe 9f74 4fbf c1b9 e03b
000001c0: 4aad 203e 0db5 503e b7ae 2f3f 5739 6a3f
000001d0: 9e8c c93e d624 2cbf b4e0 2cbf 4812 53bf
000001e0: 63b0 44bd b03d 36be e6fd 8b3b cdc2 27be
000001f0: e8d0 86bf e729 15bf ead8 80bf 5464 1ebf
00000200: dbbd 9abe 149c 32bf bdd9 27be 5e0f dd3e
00000210: f7e3 bebf f786 a0bf 795c b43d af9b d5be
00000220: f393 1ebd 64f2 a33e 4140 b0bd f6f3 29be
00000230: f871 b4bc 2888 4fc0 89aa 00c0 7696 e8bf
00000240: 53f6 46c0 06db 4dbf 8e99 c2bf c300 84bf
00000250: 86a8 4cbf d718 9dbe a518 fbbe a964 d3bc
00000260: cacf e03e 115e 033e d9a5 73bd c35f 70bf
00000270: 97c8 a93e abbd a53d 6f88 3abe dd01 c6be
00000280: a4c1 95be a4be a13e 7a97 8fbf ddef 3b3e
00000290: 81f5 0dbe 7d24 4a3e 294e 8d3e 15dd 88be
000002a0: b46a e9be 1350 14bf 863e a0be a9ed c3bf
000002b0: 1004 89bf 996a 01bd 8d1b f53e 08b4 173f
000002c0: aee8 853f ff7d 843f 0f9f 593f 9765 8e3d
000002d0: e792 ccbf 68b2 c7bf 2a2f d83d e968 a0be
000002e0: f18f 11be 6edc 5f3e 1c22 19bf 6a68 8cbf
000002f0: f62c 2bbf ba09 a0bf 5b58 57c0 e212 fa3f

f1.bias f4 [64]
0.001998669 -0.6953402 -0.6209696 -0.02006888 0.4248546 -0.4493729 0.18438432 -0.26847166
-0.36135343 0.27172846 -0.6557222 -0.4562965 -0.33620834 -0.45783502 -0.5988519 0.26843873
-0.068424165 -0.0055368864 -0.37626997 0.13216026 0.1762574 -0.13828216 0.2680901 0.28852496
-0.3926405 -0.51663035 0.21604002 0.35688317 -0.002097069 -0.38210523 -0.004752899 0.3134051
-0.003463744 0.1332574 -0.006461273 0.25668293 0.13937654 -0.09377848 -0.3435178 0.065948635
-0.04692577 0.15587252 0.36124507 0.2227747 0.16982448 0.000751962 -0.026769044 0.18125682
0.15358855 0.37715703 -0.0038689347 -0.047269434 -0.07922579 -0.0056588175 0.193734 -0.32169303
0.28400517 0.15051754 -0.4080818 -0.47776785 0.28613076 -0.0076257144 0.38068017 -0.025014153
00000000: 1afc 023b d101 32bf ddf7 1ebf 7e67 a4bc
00000010: 8b86 d93e 3414 e6be 3ecf 3c3e 1e75 89be
00000020: 5103 b9be fe1f 8b3e 69dd 27bf b29f e9be
00000030: 8023 acbe 5a69 eabe 5c4e 19bf cd70 893e
00000040: f821 8cbd c56e b5bb 75a6 c0be 0555 073e
00000050: d27c 343e d799 0dbe 1b43 893e 8bb9 933e
00000060: 2d08 c9be e341 04bf 9839 5d3e 64b9 b63e
00000070: fb6e 09bb 4ca3 c3be 35be 9bbb a276 a03e
00000080: fbff 62bb a174 083e 16b9 d3bb f26b 833e
00000090: b9b8 0e3e ef0e c0bd 91e1 afbe 1410 873d
000000a0: 3c35 40bd 0c9d 1f3e 1df5 b83e 0d1f 643e
000000b0: 78e6 2d3e 511f 453a c14a dbbc 639b 393e
000000c0: 5146 1d3e ba1a c13e f48d 7dbb 989d 41bd
000000d0: 2241 a2bd 9a6d b9bb 3562 463e f3b4 a4be
000000e0: 2069 913e 4521 1a3e 19f0 d0be fd9d f4be
000000f0: bb7f 923e 21e1 f9bb 83e8 c23e 7bea ccbc

f2.weight f4 [64, 64]
-0.12713233 0.07967299 -0.1413513 0.090701714 -0.6734759 0.042829722 0.1950211 -0.02734217
0.03820726 -0.0634492 -0.3860031 0.07270675 0.10148403 -0.18499894 -0.25304982 -0.035845768
0.02229345 0.04217804 -0.025762526 0.27368867 0.0479223 -0.34959182 -0.105190784 -0.071016364
-0.124253295 -0.07400677 0.030375909 -0.22282727 0.08041752 -0.025703399 0.060216695 -0.060754064
-0.053159013 0.023319514 -0.034223333 0.5648193 0.051185053 -0.26788688 -0.080566525 0.23078792
0.019797325 -0.06079105 -0.33924028 -0.094386056 0.099943854 -0.0029440129 -0.023683751 0.6226964
-0.55344296 0.044803258 0.029681299 0.04488454 -0.21923523 0.028900582 0.04235751 -0.793276
0.007564197 -0.43897069 -0.08943169 -0.07114807 0.6542493 -0.025661374 0.13212094 0.08578328
-0.121939994 -0.05555166 0.037620734 0.043384854 0.44758406 0.41797814 -0.18279849 0.16297679
0.018767029 0.16964723 -0.18025152 0.23354644 0.19533232 -0.14025162 -0.17016223 0.1575563
0.058480673 -0.040494256 0.060402896 0.113392465 0.24556507 -0.039631896 0.12068342 -0.039165005
0.35608885 -0.75620323 0.027079042 -0.08936621 -0.023404507 -0.124987975 -0.05719371 0.120620996
0.15956387 -0.049438797 0.04090883 0.16453095 0.092600286 -0.16476326 -0.06232495 -0.046320565
0.11284138 0.051199127 0.051331986 -0.0015106193 -0.075244166 0.03494033 0.10649523 0.27028129
0.1977799 -0.052797005 0.040627647 0.06384693 -0.16127717 0.052697223 0.08684888 0.1332837
0.17048085 0.3543442 -0.15507661 0.7322588 -0.018681305 0.00033581216 0.42413068 0.12491034
0.05660852 0.1241517 -0.30821845 -0.31299782 0.35354742 -0.65861535 0.18313111 -1.095386
-0.27692747 0.42500454 -0.08864996 0.033675343 -0.3108873 0.002272541 -0.03169853 -0.3980278
-0.20330414 -0.42825112 -0.31506205 0.076098725 0.24494639 -0.018223478 0.4800697 0.3827599
0.009401417 -0.3803864 -0.27616683 -0.7943522 -0.030454192 0.58118737 -0.116621956 0.36378875
0.10483361 -0.4849683 -0.51917547 0.48803002 -0.45616916 -0.2035693 -0.012872044 0.044488594
-0.27723598 -0.49405286 -0.49113262 -0.5236275 0.47194135 -0.43502942 -0.35918182 0.27604455
0.0049182326 0.2576367 -0.20452844 0.009328879 -0.010464001 -0.059355415 -0.42682964 -0.057570517
-0.42690337 0.18394007 0.0067747827 1.0836307 0.44279712 -0.28797245 0.10875748 0.22251855
-0.0062726955 0.10907964 -0.09631327 0.09894401 -0.026935812 -0.06351567 0.16412033 0.092537396
-0.0024517484 0.03570183 -0.0562291 -0.018346999 0.05121375 -0.16694848 0.1842298 0.028921722
0.052736007 0.07445603 0.056214318 0.1486083 -0.040684536 -0.11667133 0.017484795 -0.01866073
-0.2783572 -0.2792316 0.032841954 -0.027731868 0.06364226 -0.06593895 0.0471753 0.11364748
-0.03015648 -0.028584594 0.042976122 0.44184175 -0.00705667 -0.276144 -0.13690479 0.079996645
0.06672342 0.010825413 0.15236476 -0.00044835333 -0.006010676 0.02693946 0.0017070612 0.18614122
0.12307842 0.027531484 -0.004239548 0.016039448 -0.06494213 0.16039088 0.04541073 -0.03962149
0.035812356 -0.06813996 0.0038930033 -0.25828123 0.32411987 0.040080693 0.20504747 -0.0035676358
00000000: fa2e 02be 982b a33d 65be 10be d2c1 b93d
00000010: eb68 2cbf 386e 2f3d 9cb3 473e b0fc dfbc
00000020: 377f 1c3d a7f1 81bd 33a2 c5be 47e7 943d
00000030: dcd6 cf3d 5d70 3dbe bf8f 81be 03d3 12bd
00000040: c1a0 b63c e1c2 2c3d ef0b d3bc ec20 8c3e
00000050: 2c4a 443d b3fd b2be 446e d7bd 0771 91bd
00000060: 8378 febd dd90 97bd e6d6 f83c d52c 64be
00000070: f1b1 a43d ef8f d2bc c8a5 763d 41d9 78bd
00000080: 44bd 59bd 9108 bf3c c42d 0cbd ff97 103f
00000090: 6ba7 513d 7828 89be 1000 a5bd ab53 6c3e
000000a0: 002e a23c 0900 79bd e7b0 adbe 7a4d c1bd
000000b0: 5daf cc3d 57f0 40bb 6d04 c2bc 0869 1f3f
000000c0: 70ae 0dbf 9f83 373d 3226 f33c dad8 373d
000000d0: 337f 60be eac0 ec3c 127f 2d3d 2314 4bbf
000000e0: 15dd f73b c4c0 e0be f627 b7bd 14b6 91bd
000000f0: e27c 273f cd37 d2bc b64a 073e 25af af3d
00000100: adbb f9bd 238a 63bd 3318 1a3d 51b4 313d
00000110: bd29 e53e 3b01 d63e 872f 3bbe 63e3 263e
00000120: 50bd 993c 01b8 2d3e db93 38be cc26 6f3e
00000130: 3205 483e 1f9e 0fbe 023f 2ebe 7056 213e
00000140: 6e89 6f3d 4edd 25bd 0769 773d 4f3a e83d
00000150: 6975 7b3e 0e55 22bd de28 f73d 7c6b 20bd
00000160: 4751 b63e 8996 41bf ded4 dd3c a205 b7bd
00000170: cfba bfbc b2f9 ffbd f443 6abd 2408 f73d
00000180: b664 233e 5680 4abd 0490 273d cd7a 283e
00000190: 38a5 bd3d b3b7 28be 7248 7fbd a2ba 3dbd
000001a0: 6219 e73d 2db6 513d 7d41 523d f9ff c5ba
000001b0: 9d19 9abd 971d 0f3d 2c1a da3d 4f62 8a3e
000001c0: d086 4a3e ac41 58bd 2d69 263d 2ec2 823d
000001d0: d825 25be 0bd9 573d d3dd b13d 867b 083e
000001e0: 8892 2e3e 9a6c b53e 67cc 1ebe 5075 3b3f
000001f0: 8909 99bc f20f b039 a827 d93e fed0 ff3d
00000200: 56de 673d 3f43 fe3d cfce 9dbe 4041 a0be
00000210: 2b04 b53e 049b 28bf b986 3b3e 9c35 8cbf
00000220: 70c9 8dbe 329a d93e 1c8e b5bd 28ef 093d
00000230: 9f2c 9fbe e9ee 143b 51d6 01bd 4dca cbbe
00000240: f62e 50be bb43 dbbe d04f a1be a6d9 9b3d
00000250: 3ad3 7a3e 6749 95bc b2cb f53e 1bf9 c33e
00000260: 6708 1a3c 02c2 c2be bd65 8dbe aa5a 4bbf
00000270: 127b f9bc b2c8 143f 7ed7 eebd 8542 ba3e
00000280: 01b3 d63d c44d f8be afe8 04bf 12df f93e
00000290: 018f e9be 7874 50be 44e5 52bc ac39 363d
000002a0: e0f1 8dbe 7ff4 fcbe bc75 fbbe 740c 06bf
000002b0: 4ca2 f13e 2dbc debe aee6 b7be b655 8d3e
000002c0: 2029 a13b f5e8 833e e76f 51be 28d8 183c
000002d0: 3471 2bbc aa1e 73bd 6a89 dabe 10cf 6bbd
000002e0: 1493 dabe c95a 3c3e fffe dd3b 69b4 8a3f
000002f0: 4eb6 e23e 2071 93be 3ebc de3d e7db 633e
00000300: 2f8b cdbb 2565 df3d e43f c5bd 28a3 ca3d
00000310: 7ea8 dcbc 8114 82bd 290f 283e 3f84 bd3d
00000320: 83ad 20bb 153c 123d 7c50 66bd 724c 96bc
00000330: 82c5 513d 8bf4 2abe bda6 3c3e 3fed ec3c
00000340: b601 583d 677c 983d fc40 663d c62c 183e
00000350: d4a4 26bd 61f1 eebd 463c 8f3c 63de 98bc
00000360: d684 8ebe 72f7 8ebe 4985 063d f12d e3bc
00000370: e056 823d 000b 87bd e33a 413d 03c0 e83d
00000380: b90a f7bc 3d2a eabc bb07 303d 1539 e23e
00000390: a33b e7bb bf62 8dbe c530 0cbe 48d5 a33d
000003a0: 4aa6 883d 135d 313c 8205 1c3e f710 ebb9
000003b0: 34f5 c4bb 24b0 dc3c 78bf df3a ce9b 3e3e
000003c0: 8a10 fc3d b589 e13c e8eb 8abb 2965 833c
000003d0: 6100 85bd 823d 243e 9a00 3a3d 254a 22bd
000003e0: faaf 123d f78c 8bbd c221 7f3b 703d 84be
000003f0: 0af3 a53e a72b 243d f7f7 513e ffce 69bb

f2.bias f4 [64]
0.07321862 -0.00045635118 -0.27815792 0.0125846695 -0.025455981 -0.06124799 0.02331574 0.048166122
0.022727981 0.014969283 -0.04185155 -0.0788284 0.016469758 0.014092065 0.010207489 0.038904794
0.020531852 0.014148168 0.0072072605 -0.0057099955 -0.019169476 -0.04320873 0.007564637 -0.01641313
-0.012489795 -0.028047284 0.08718208 -0.9399752 0.015453703 0.008035327 0.033734534 -0.00059411325
-0.0015531123 0.27278605 0.015269326 -0.053410154 0.04704589 -0.07105663 -0.0016383803 -0.012447216
0.054160327 0.09826446 -0.40527436 0.07151673 0.016167684 0.069521844 0.09239652 0.005665082
0.019311104 -0.031386267 0.01047414 0.043103762 0.008988951 0.03890693 0.022506729 0.013226732
0.08486027 -0.053921323 0.0051712566 -0.0062749917 0.028182317 0.1104417 -0.004878129 0.056454577
00000000: a5f3 953d 6b42 efb9 b76a 8ebe ee2f 4e3c
00000010: 1089 d0bc 2cdf 7abd a700 bf3c d749 453d
00000020: 0830 ba3c b941 753c 886c 2bbd c970 a1bd
00000030: 96eb 863c 68e2 663c 503d 273c a25a 1f3d
00000040: 6a32 a83c b8cd 673c e22a ec3b ea1a bbbb
00000050: 4e09 9dbc a3fb 30bd c6e0 f73b d474 86bc
00000060: ffa1 4cbc 6bc3 e5bc 858c b23d 37a2 70bf
00000070: 8731 7d3c 9ba6 033c 392d 0a3d 44be 1bba
00000080: cd91 cbba 9daa 8b3e 322c 7a3c 9bc4 5abd
00000090: 31b3 403d 2386 91bd ecbe d6ba 68ef 4bbc
000000a0: 38d7 5d3d e13e c93d 1f80 cfbe 5d77 923d
000000b0: 1772 843c 7861 8e3d 633a bd3d 27a2 b93b
000000c0: 5232 9e3c e38e 00bd ba9b 2b3c 928d 303d
000000d0: 6546 133c df5c 1f3d 0860 b83c efb4 583c
000000e0: 39cb ad3d 9bdc 5cbd a573 a93b 729e cdbb
000000f0: 9ade e63c 422f e23d b6d8 9fbb ea3c 673d

f4.weight f4 [1, 64]
-0.053988684 -0.040036056 0.4392682 -0.0435707 0.9074561 0.46195373 -0.04515289 -0.054568164
-0.050787132 -0.04417939 0.42181778 -0.029933963 -0.049264085 0.30775133 0.2895334 -0.042005252
-0.034913022 -0.031345695 -0.04757819 -0.089373834 -0.097786754 0.13419896 -0.031283587 -0.048072156
0.27737853 0.4140143 -0.036589798 0.18129754 -0.037004866 0.16448328 -0.043889325 -0.1221627
-0.026149567 -0.0051929043 -0.033564124 -0.84465027 -0.04495557 0.108526334 0.18951726 -0.08394516
-0.046963826 -0.019748969 0.34941527 -0.048734076 -0.029306691 -0.017251045 -0.04456946 -0.55410373
0.478743 -0.17125066 -0.040154997 -0.043817908 0.16453256 -0.04563734 -0.039711606 0.1825
-0.0426386 0.6831491 0.1475185 0.24640371 -0.24010205 -0.023566777 -0.21726061 -0.047786172
00000000: 3d23 5dbd d9fc 23bd c3e7 e03e 3177 32bd
00000010: 0b4f 683f 3385 ec3e 3df2 38bd de82 5fbd
00000020: 2b06 50bd 73f5 34bd 80f8 d73e 1238 f5bc
00000030: 23c9 49bd 9591 9d3e b93d 943e b30d 2cbd
00000040: f500 0fbd 5864 00bd 59e1 42bd a109 b7bd
00000050: 6c44 c8bd 746b 093e 3823 00bd 4fe7 44bd
00000060: 8f04 8e3e aff9 d33e 2fdf 15bd 10a6 393e
00000070: 6a92 17bd 4e6e 283e 4bc5 33bd 7030 fabd
00000080: 9e37 d6bc 3d29 aabb 897a 09bd 003b 58bf
00000090: 5523 38bd 0e43 de3d d010 423e 71eb abbd
000000a0: 245d 40bd 97c8 a1bc 8fe6 b23e 629d 47bd
000000b0: 9614 f0bc 1052 8dbc 778e 36bd bed9 0dbf
000000c0: cd1d f53e 555c 2fbe 9179 24bd 687a 33bd
000000d0: 397b 283e 38ee 3abd a3a8 22bd 48e1 3a3e
000000e0: d0a5 2ebd dce2 2e3f 170f 173e 4151 7c3e
000000f0: 50dd 75be 1d0f c1bc 9179 5ebe 6fbb 43bd
