nn5.pt (torch_old, 19046 bytes, 5 tensors)

f1.weight f4 [64, 3]
00000000: 280f fd3e d108 0bbf af83 a03f b784 22bc
00000010: 0337 8abd fcf0 313e 2d46 07be ab64 3e3e
00000020: d561 89be 96de ea3e d36c dfbe 2d9b 113f
00000030: 0066 803e 3a51 82be dc1c 7c3f f4a8 ebbe
00000040: b9cf bdbe 45a9 9d3d 7afd 05bf e016 fabe
00000050: 10e5 ba3e e203 183e 0da5 4fbe c341 463f
00000060: 5d43 adbe 5d87 09bf 3795 b33e 148f 433d
00000070: de76 cfbd 5bfd 163f c9ea 9abe 6e51 7b3e
00000080: 73f8 803f c27e 983e 3a77 9cbe 3774 0e3f
00000090: 1b28 afbe 7ca1 be3e 8a9e 50be 68c5 8cbb
000000a0: 91fa a03d 9166 ecbe b66a 7dbe 207f e03c
000000b0: 10e4 4ebf 559d 0a3e f7e5 b6be a809 113e
000000c0: 5fe3 38be ad86 173e ad77 27bf 7466 143e
000000d0: a0b3 02be b3de 7abf 2278 93be f5a8 973e
000000e0: 0aed 77bf 443c febe ffc7 ec3e a6b1 a8be
000000f0: 2b5e 563e 0915 72be 4c04 1a3f 87d7 bd3d
00000100: 5c42 0abe dae3 11bf 9462 4f3e 96fd 3cbe
00000110: d4c6 193f fcdf 5b3e 588a 21be eda4 043f
00000120: 14ae 8bbe 214d a13e 0afa 65be 993f 4e3d
00000130: 760c 0fbd fa12 3cbf 2efe 7f3e 3f16 92be
00000140: e55b bd3f a72f e53e 492e e7be dfbc 703f
00000150: 0683 75be 9115 863e 449d 01bf 1450 af3d
00000160: cd97 c6bd b42a 6a3f d452 02be 5746 d8be
00000170: a1d7 dd3e 4ea9 87be 9d53 723d 8b0f 773e
00000180: 5fef 99be 6283 f9be 66b8 25be 72ed e3be
00000190: 1537 fbbe 83ea ffbe 05b3 9a3d 3d35 d4be
000001a0: 66f9 70be 96d9 2ebe 7bdf c0bc 8e64 c2be
000001b0: 9c50 783d 0716 d8bd 9861 5f3f 9031 463e
000001c0: f4fd 6dbe 268d 9f3f d764 05be f349 87be
000001d0: 75ba ffbd 3809 d13e 2994 c7be 1580 393f
000001e0: 278d 8c3d 9078 8abc 0a81 23bf 477e aebe
000001f0: 9670 ae3e 2ec4 a13e 7cea 133e bb92 58be
00000200: fe94 56bf 2749 433d 46dc 36bd e318 f8be
00000210: ad36 c13e 7221 b4be 297f e13e 15b4 b4be
00000220: a6b3 943e 8d41 34bf d058 1abe ac84 6c3e
00000230: 6f84 27bf 8f75 dcbd 03c8 32bd 7456 9cbe
00000240: e318 93be cbc7 643e a74f 39bf 5686 e53e
00000250: 27ef 01bf 8f4a a53e d711 653e c8ff 4fbe
00000260: d839 593f 8127 5dbd dbfc 363c f482 25bf
00000270: c0e1 843e 88e9 6fbe 7f47 153e 1295 7d3e
00000280: d2ee 9ebe d244 0a3e 0f00 80be 249e de3c
00000290: 920a 333d 57ba 90be 13d7 6b3e d1ce 003f
000002a0: 2238 10bf a110 f3be b130 d8be da3e 49be
000002b0: 9222 653e 430a 0cbf fd3a 713d 13f9 103d
000002c0: a4e9 703f bd20 203e d715 20be e1bd 84bf
000002d0: b82c 11be 325c 823d bd7e 68bf 2d6e 59bd
000002e0: 9492 803c 1f5b 553e 5b65 c93e 6e6c b9be
000002f0: c863 a23e e2c0 79be 1500 363e bb1c 5cbf
0.49425626 -0.5431033 1.2540187 -0.009919337 -0.06748774 0.17377084 -0.13210364 0.1859309
-0.26832452 0.45872945 -0.43637714 0.56877404 0.2507782 -0.25452596 0.98481536 -0.46027339
-0.37072542 0.07698301 -0.523399 -0.48845577 0.36502886 0.14845231 -0.20277806 0.77444094
-0.33840457 -0.5372217 0.3507478 0.04774387 -0.10130094 0.5898034 -0.30257252 0.24542782
1.0075821 0.2978421 -0.30559713 0.5564608 -0.34210286 0.37232578 -0.20372978 -0.0042959936
0.07860292 -0.46172002 -0.24747738 0.027404368 -0.80816746 0.1353658 -0.35722324 0.1416384
-0.18055485 0.14797468 -0.65416986 0.14492208 -0.12763834 -0.9799606 -0.28802592 0.2962109
-0.9684607 -0.49655354 0.46246335 -0.32948035 0.2093436 -0.23640837 0.60162807 0.09269624
-0.13501877 -0.569883 0.20252448 -0.1845611 0.6006901 0.21472162 -0.1577543 0.51814157
-0.2728125 0.31504157 -0.22458664 0.05035362 -0.034923993 -0.73466456 0.24999306 -0.28532597
1.4793669 0.44762918 -0.451525 0.94038194 -0.23975763 0.2618833 -0.50630593 0.085601956
-0.096969225 0.9147141 -0.12726909 -0.42241165 0.43328574 -0.26496357 0.05916177 0.24127023
-0.30065438 -0.4873305 -0.16183624 -0.44517094 -0.49065462 -0.49983606 0.075536765 -0.41446868
-0.23532638 -0.1707519 -0.023544064 -0.37967342 0.06062375 -0.105510764 0.8725829 0.19354844
-0.23241407 1.246495 -0.13026749 -0.26423606 -0.12486736 0.40827346 -0.38980225 0.7246106
0.0686286 -0.016903192 -0.63868773 -0.34080717 0.3407027 0.31594986 0.14444917 -0.21149723
-0.83821094 0.047677185 -0.044643663 -0.48456487 0.37737027 -0.35181767 0.44042328 -0.35293642
0.2904331 -0.7041252 -0.15072942 0.23097485 -0.6543645 -0.1076461 -0.043647777 -0.30534708
-0.28729925 0.2234184 -0.72387165 0.44829053 -0.5075554 0.32283446 0.22370087 -0.20312417
0.8485389 -0.053992752 0.011168684 -0.64652944 0.25953484 -0.23428929 0.14578055 0.24763897
-0.3104158 0.13502815 -0.25000045 0.027175017 0.043711253 -0.28267166 0.23031263 0.50315577
-0.5633565 -0.47473624 -0.4222465 -0.19652882 0.22376469 -0.5470316 0.058894146 0.035393786
0.9410651 0.15637489 -0.15633331 -1.0370446 -0.14177215 0.06365241 -0.9081839 -0.053083587
0.015694894 0.20835541 0.3933514 -0.36215538 0.31716752 -0.24389985 0.17773469 -0.8598134

f1.bias f4 [64]
00000000: 41fe 6e3f 9c42 32be d972 f2be ae0f b1bd
00000010: 234b eb3e c6aa a4be f83e 06bf a342 fd3e
00000020: d2f1 a7be b074 aa3e f7cf f33e deb1 ba3d
00000030: 7adb 06bf 7046 d23d 77ed c53c 845b 653d
00000040: 1c21 643e a354 aabe aaea bfbe b513 b33e
00000050: 5b0b a53e bf3e 023f ca6f 80bd e367 94be
00000060: 16d3 a5be 432d 8bbc 1af2 163f 65dd bc3e
00000070: 388e 04bf d634 ad3e de03 fdbe b11f 7a3e
00000080: 4e00 d4be 9260 6ebe 328a 2f3e 3e31 f7be
00000090: 2419 873e c8ba 2b3f 71c0 a33e 7a07 2abd
000000a0: 4084 a5be 9165 94be 784d 3f3e 8db9 74bd
000000b0: 8385 22be c8a4 5e3e 055a eebe 170d 17bf
000000c0: fe89 cfb9 14bf 083f 5173 cc3e 9067 443e
000000d0: 68ed 993e 0de1 b53e 1a9f 97be 509a b83e
000000e0: 87c8 ce3c c044 5dbe 5b6a 813c 5f66 433e
000000f0: 686c 483d ce2d dcbe 5a52 49be ba2e eb3e
0.9335671 -0.17408222 -0.47353247 -0.08645569 0.45955762 -0.3216154 -0.5243983 0.49464902
-0.32801682 0.3329215 0.47619602 0.09115957 -0.52678645 0.10267341 0.024161084 0.05599548
0.22278255 -0.33267698 -0.37483722 0.34975973 0.32235226 0.5087699 -0.06271322 -0.2898551
-0.32387608 -0.016989356 0.5896317 0.3688766 -0.5177951 0.33829373 -0.49417013 0.24426152
-0.41406482 -0.23279026 0.17142561 -0.48279756 0.26386368 0.6708188 0.3198276 -0.041511036
-0.3232746 -0.2898374 0.18681896 -0.059747268 -0.15871243 0.21742547 -0.46553054 -0.5900435
-0.0003958493 0.5341656 0.3993173 0.19180131 0.3006394 0.35523263 -0.29613572 0.3605523
0.025242103 -0.21608257 0.015797785 0.1908202 0.04893151 -0.43003696 -0.19660321 0.45934087

f2.weight f4 [64, 64]
00000000: 436f 52be 71c3 b1be cfc3 8abd c5c4 09be
00000010: 8eee 49be 56f4 5fbe 4486 e53d 1c1d 153e
00000020: 0ca4 6bbe d18e 15be 36f5 bfbd efbb 1c3e
00000030: 2f03 7d3c 55e7 36be 88b0 acbd 001b 2abe
00000040: 253c 1bbe 8a1a 60be 9117 2cbe 0076 9f3d
00000050: 531c ca3c 05c4 e2bd 17a9 60bc 51cb 1b3a
00000060: 15f8 063d 45fd 29be 2dc1 31be e4c2 863d
00000070: 5a00 05be aaa6 41be 4e2a 0a3e 4d30 8dbe
00000080: 6b84 14bc 2313 4c3d f6da 0d3e f01a 4dbe
00000090: f110 7f3e 3a08 55bd 6999 8bbd cbed c9bd
000000a0: 9eca 62bd 29b0 26be e947 423d 458e 903d
000000b0: d9d1 7fbe 8a52 2bbe 8414 e23d 775d 80be
000000c0: e25b 95be 8ff8 24bc a1c0 a4bd 6fc1 943d
000000d0: 9b06 47be 6558 00be d434 1cbe b0da 233e
000000e0: 68b8 833d e294 f33d 41ce 6fbd 4ecb f63c
000000f0: cb86 2abb 333e 72bd d4da 4d3c 1eae b1bc
00000100: 9977 4c3d ba9b 44be 6e07 1abd 74d5 6a3c
00000110: 9f74 b3be 8d1a b83c 848d 073e ab08 7a3d
00000120: d723 923d fd46 40be 7a59 eb3d cf51 19be
00000130: 7690 7fbd 32c2 95bd 061e da3c 215f b73e
00000140: 9840 27be d04f 6ebe 844c 1b3e 574f ad3d
00000150: a571 bcbe 45cd e93c fa3a 9e3d c4a8 f5bd
00000160: 112e 17be 6708 bcbe ca0c 94be 2444 23be
00000170: 6ea8 87bc d6a4 1ebc b05a 763c 19a6 693d
00000180: e4ef 7e3d 700b 1c3e b7b4 57be 6519 ec3c
00000190: 4dc1 34bd 578c 603c fd3b ab3d c17f 2abe
000001a0: 1417 3abe 5e10 13be 5ae4 53be 0f06 e0bd
000001b0: 1338 8cbe 41d6 42be bcaa adbb 6d13 c1bd
000001c0: 6e18 b3be 4639 f3bc c957 ecbc 15c6 13be
000001d0: 24a9 4cbe 5894 9e3b 6d22 f5bb bb29 26bc
000001e0: ce91 e6bd a95e 82bd 90f4 b23b c818 75bc
000001f0: 0bb2 08bf ed0e d83c 0bb1 9dbd 3142 27be
00000200: cecf 0fbd 1911 70bc af72 93bc a037 0c3e
00000210: 50e7 b43c a574 0ebd 70dc 47bc dd69 0f3e
00000220: c7b3 1abd fead f83c 5fc8 de3d 17d5 fe3c
00000230: d9aa 65bd 5da7 f9bc 3038 c1bd 0b65 30bd
00000240: b98f 963d 93d2 83bd c178 a4bb c85d e3bc
00000250: 2593 013d 57db ec3c 3e68 353e 21e0 433d
00000260: c423 a2bd abd9 8fbb 8931 17bb a891 fb3d
00000270: 63cd acbd b0cf c53d 486d ebbd e344 4dbd
00000280: 5dda c1bb f853 60be cce2 3439 889c 7dbd
00000290: 526b 353d bb03 733e 4b59 89be 19f6 fabc
000002a0: cdc8 a7bd a84c 5d3b 5775 e3bd 8249 8dbc
000002b0: 5eeb d53d cc35 1839 3ee8 053d 0aa6 17bd
000002c0: 5ec9 34bd fffb 0f3e fa7b 773d 09b5 603d
000002d0: 2675 a2bc abe3 1d3d 6be1 c2be fd3e 7a3d
000002e0: 83bc 11bf c83c 1abe 0520 21bb 68c2 85be
000002f0: 6d31 07be ab03 cdbd 19b7 f63c 5216 d43c
00000300: 83d7 d8be 3b55 8dbe 6d60 063d c900 32be
00000310: 2d74 39be 98ca 1fbe 3464 f4bc 2c22 5d3e
00000320: b441 81be 23a0 8fbe e5b8 6cbd fd5e 3f3c
00000330: f92a b83b e905 f7bd f46d 97bd 4ad5 63be
00000340: 2640 f5bd d0d7 8cbe cec6 96bd b68f 943d
00000350: 6157 ff3d 9d21 c53d cb39 3f3d ca81 fc3d
00000360: 0e2a 793d aac3 b5bd 32b5 55be 15f3 ba3d
00000370: c2b6 7abe 749c f4bd 1e9c aabe e2ec 52be
00000380: 0935 5abe 179b 22be d8e8 033e 627b 84be
00000390: 035b c63d c21d bcbc d2f3 b53d c093 42bd
000003a0: 4f27 073d 3de1 29be a74a 723c fb9d 823d
000003b0: fe53 f53b 451d 1dbe 7471 36be 1777 12be
000003c0: 089c 5bbe e684 443d 6d0f c83d 3741 30be
000003d0: 4ba9 8abe a14f bcbd 0149 0dbe 5aff c03d
000003e0: 97b9 d2bd 28ff 273e c871 44be 6540 7e3c
000003f0: 4c8c 2a3e 27d3 863d 9fd1 5bbe eeb3 f53d
-0.20550255 -0.34719422 -0.06775629 -0.13453968 -0.19719908 -0.2187055 0.1120725 0.14561886
-0.23011798 -0.14605261 -0.09372942 0.15306066 0.015442654 -0.17861684 -0.08432108 -0.16611862
-0.15159662 -0.21885124 -0.16805865 0.077861786 0.02467171 -0.11072544 -0.013712189 0.0005943077
0.032951433 -0.16600521 -0.17358847 0.06580141 -0.12988415 -0.18911234 0.134927 -0.27575913
-0.009064774 0.049822938 0.13853058 -0.20029807 0.24908806 -0.0520098 -0.0681637 -0.098598085
-0.055369012 -0.16278137 0.04743186 0.07058386 -0.24982394 -0.16730705 0.11039069 -0.25071308
-0.29171664 -0.010069027 -0.080445535 0.07263457 -0.19436114 -0.1253372 -0.15254527 0.16001391
0.06431657 0.118936315 -0.05854631 0.03012624 -0.0026020284 -0.05914135 0.01256438 -0.02168947
0.049918745 -0.1920003 -0.03760474 0.014333118 -0.35049912 0.022473598 0.13237578 0.061043423
0.07135742 -0.1877708 0.11491676 -0.14972614 -0.062393628 -0.073124304 0.026625644 0.35814765
-0.16333234 -0.23272634 0.15165907 0.084623985 -0.36805454 0.028540263 0.07726093 -0.1199508
-0.14763667 -0.3672516 -0.28916007 -0.15943962 -0.016559806 -0.009682855 0.01503627 0.05704317
0.062240496 0.15238738 -0.21065031 0.028820703 -0.04412966 0.013705335 0.08361051 -0.16650297
-0.18172866 -0.14361712 -0.20692578 -0.109386556 -0.2738653 -0.19027044 -0.005299894 -0.09427533
-0.34979576 -0.029690396 -0.028850453 -0.14431031 -0.19986397 0.0048394613 -0.0074809105 -0.010141785
-0.11258279 -0.06365711 0.005461283 -0.014959522 -0.5339667 0.026374305 -0.07699784 -0.16333844
-0.035110287 -0.014652514 -0.017999021 0.13693094 0.022082955 -0.03477921 -0.0121985525 0.14005227
-0.037769105 0.030356403 0.108780615 0.031107469 -0.056071136 -0.030475313 -0.09434545 -0.043065112
0.07351632 -0.06436648 -0.005019278 -0.02775468 0.03163447 0.028913183 0.17715546 0.047821168
-0.07916978 -0.0043899617 -0.0023070297 0.12283641 -0.08437612 0.09658754 -0.11495453 -0.050114524
-0.0059159235 -0.21907032 0.00017250626 -0.061916858 0.0442918 0.23731892 -0.26825938 -0.030634927
-0.081925966 0.0033767615 -0.11106365 -0.017246965 0.10445283 0.0001451589 0.032692187 -0.03702358
-0.04413735 0.14060973 0.060420968 0.05486015 -0.019831251 0.0385472 -0.38062605 0.061095227
-0.5692827 -0.15062249 -0.0024585736 -0.26124883 -0.13202448 -0.10010465 0.030116605 0.02588955
-0.42351922 -0.27604088 0.032806803 -0.17383112 -0.18110724 -0.15604627 -0.029832937 0.21595067
-0.2524544 -0.28051862 -0.057793517 0.011680362 0.005620357 -0.12061674 -0.07394019 -0.22249332
-0.11975126 -0.27508402 -0.07362138 0.07253973 0.12467838 0.09625552 0.046685975 0.12329443
0.060831122 -0.088752106 -0.20869902 0.091283955 -0.24483779 -0.119439036 -0.33322233 -0.20598176
-0.21309294 -0.15879475 0.12881792 -0.25875384 0.09685328 -0.022963408 0.08884396 -0.047504187
0.032996472 -0.16589828 0.014788306 0.06377789 0.0074868193 -0.15343197 -0.17816716 -0.14303242
-0.2144624 0.047978304 0.09768567 -0.17212377 -0.27082285 -0.091948755 -0.1379738 0.094237044
-0.10289305 0.16405928 -0.19184029 0.015518283 0.16655082 0.06583243 -0.21466683 0.119972095

f2.bias f4 [64]
00000000: 69ef 0bbd 7b46 d53b 2e29 8bbb 85b3 9e3b
00000010: a544 9dba 17ae 2ebc ba70 4dbd d655 99bb
00000020: 7567 023c b46b 5dbb 591b a8bb 3e50 44bc
00000030: cca5 7cbc f836 b6bd a20a 19bd a6a8 07bc
00000040: f926 683c f618 feb9 1f43 ecbb 4a28 e6bc
00000050: fa8a 513b 15d6 a1bb a533 8ebb cd8a acbb
00000060: 026b d1bc e172 96bc 5e99 db3b 4426 babc
00000070: 30a9 17bc 297e e8ba b30f b7bc 5764 3bbc
00000080: 39ca 5dbc 3e4f c4bc 90a5 22bb 79c0 153c
00000090: f706 cfbc fb8f 33bd 4ea0 f0bc a2eb 02bc
000000a0: f167 fcbc 4b76 303c f913 91bc 201f 98bd
000000b0: 0b31 abbb 44e3 573c d74c 38bb 3206 0e3c
000000c0: 09cd 28bb 56e9 31bc bd38 f7bc ca15 a9bd
000000d0: 1f16 e7ba ca32 24bc 020e e53b 1aa0 6dbd
000000e0: 8159 b33a eb15 46bc afad 31bd fed0 81b9
000000f0: e273 11bc 9046 84bc 23a3 a5bc bcec 33bc
-0.034163866 0.006508646 -0.0042468524 0.0048431777 -0.0011998607 -0.010661623 -0.050156333 -0.004679422
0.007959236 -0.003378612 -0.005130213 -0.011982022 -0.015420388 -0.08897203 -0.037363656 -0.008279955
0.014169448 -0.00048465253 -0.00721015 -0.028095383 0.0031973706 -0.0049388506 -0.0043396526 -0.00526557
-0.02556372 -0.018365325 0.0067016324 -0.022723325 -0.009256646 -0.0017737794 -0.022346353 -0.011437497
-0.013536983 -0.023963567 -0.0024817921 0.009140127 -0.025271876 -0.043838482 -0.029373314 -0.00799075
-0.030811282 0.010770391 -0.017709719 -0.074278116 -0.0052243522 0.013176743 -0.0028121972 0.008668469
-0.0025756976 -0.010858854 -0.030178422 -0.08256109 -0.0017630494 -0.010021875 0.0069901953 -0.058014013
0.001368329 -0.012090187 -0.04337853 -0.0002476051 -0.008877726 -0.016146928 -0.020219391 -0.010981735

f4.weight f4 [1, 64]
00000000: 32c2 e13b c513 2b3c 7bf0 19bd 4b11 613c
00000010: cee8 ad3c 0a5d bd3c 26bb 2f3c e936 17bd
00000020: 7036 57bc d72e c03c 8c15 b43c b12c d23c
00000030: 5938 873c 17c2 ff3b a5de b63a 4592 cd3c
00000040: aa13 873b c56c c53c 186e 913c bb65 5d3a
00000050: 9153 5b3c b2a2 eabc 88e2 13bd f842 bb3c
00000060: 83d1 b1bc ed7a 533c e3a5 a83b 488e 813c
00000070: 38c8 8f3b a311 ebbc e2fa 1a3c 5473 74bc
00000080: 45ad cd3a be76 483c be94 df3c 4ef1 463b
00000090: 4ffe 433b 982d 213c 40a2 44bc 2d7e b53c
000000a0: 37dd 203c ee8f 33bb b0f0 7cbc 5a5f c43c
000000b0: 61e6 c5bc 6fed 94bb 47f2 adbc bf00 fc3b
000000c0: 0e77 c63c 254d 35bd 3697 d6bc c50b af3b
000000d0: ff63 5f3c 1150 da3c 3286 1dbc c574 e6ba
000000e0: 99c2 0b3c 9a27 e5bc 453f 443c e877 c9bc
000000f0: ad95 2f3c 2375 75bc 1b2d eabb 9e70 07bd
0.006889605 0.010441725 -0.037582856 0.013737033 0.021229174 0.023115654 0.010725772 -0.0369176
-0.0131355375 0.023459835 0.02198293 0.025656076 0.01650636 0.0078051197 0.0013951851 0.02509416
0.004122217 0.024099717 0.017752692 0.000844564 0.013386623 -0.028642032 -0.03610471 0.022859082
-0.021706348 0.012907726 0.0051467284 0.015814915 0.0043878816 -0.028694933 0.009459229 -0.0149200745
0.0015691897 0.012235342 0.027292605 0.003035623 0.0029906218 0.009837531 -0.012001574 0.022154892
0.009818367 -0.0027399021 -0.015438244 0.023971248 -0.024157705 -0.004544906 -0.02123369 0.0076905186
0.024226692 -0.044263024 -0.02619515 0.005341979 0.013634681 0.026649507 -0.009614514 -0.0017582407
0.008530282 -0.027972985 0.011977975 -0.024593309 0.010716838 -0.014981541 -0.0071464903 -0.033066384
